model/RegAlloc/ggnn_drl/rllib_split_model/src/node_select_model_inference/tf_model/model.tflite (tflite, 286328 bytes, 7 tensors)

Const_2 f4 [64, 1]
000000 40 88 3b 3e 8e 55 b1 3e 28 34 42 3c b8 72 bb 3e
       0.18313694 0.34635586 0.011853255 0.3661096
000010 e8 06 c0 3b 34 90 80 3d d0 bb 9b bd 8b 74 cb 3e
       0.0058601983 0.062775046 -0.07604182 0.39737353
000020 c8 a5 b2 3c 97 35 19 3e 8c fd ac 3e 56 10 b6 3c
       0.021807566 0.14961849 0.3378719 0.022224586
000030 03 eb 1e 3f 11 02 26 bd b1 50 4c be 94 7f 6a bc
       0.6207735 -0.040529314 -0.19952656 -0.014312644
000040 88 8e d3 3e 94 f3 d6 3a e4 9a a1 bc d1 d4 a8 bd
       0.4131968 0.0016399496 -0.019727178 -0.082437165
000050 c1 d4 76 bc ce cc c5 bc 91 ca 3c 3a 25 02 a0 3d
       -0.015065373 -0.02414551 0.00072018156 0.07812909
000060 66 19 b5 3e c6 4b 58 3b 33 fc 21 bc 95 7e 9a 3d
       0.3537094 0.003300415 -0.009886789 0.07543675
000070 7c c7 1c 3e ff 15 de bb 2a 8b 3e bd 28 39 d1 3e
       0.15310472 -0.0067775245 -0.046519436 0.4086392
000080 d4 37 e8 3d 03 2b 6e 3e a6 3f fc bd b1 86 a7 3e
       0.11338773 0.23258595 -0.123168275 0.3271995
000090 20 b5 b3 ba da 7b c7 3e 5e a0 dd bd 15 b5 99 3d
       -0.0013710596 0.3896168 -0.10821603 0.07505242
0000a0 c4 b8 de bd 70 4d 9b be 4a 55 d9 bc d1 cf f8 bd
       -0.10875085 -0.30332518 -0.026529927 -0.12149013
0000b0 02 91 0b be 49 ad 9a 3e 95 06 2e 3c 04 70 a9 bd
       -0.13629535 0.3021033 0.0106216865 -0.082733184
0000c0 09 87 9c 3c 8a 7b 5f 3e 69 94 91 3e a6 a5 14 bd
       0.019107359 0.2182447 0.2843354 -0.036290787
0000d0 fc a0 27 3c 4d 73 85 3e 37 99 df 3e bc 21 b4 3d
       0.010231253 0.2606453 0.4367158 0.08795497
0000e0 e6 9c 1e 3e 04 fc 92 be 68 61 e2 bd be 28 58 3e
       0.1548954 -0.28707898 -0.11053735 0.21109292
0000f0 cd 11 db bd 2b d7 35 3e ec 57 fb bd d3 e1 07 be
       -0.106967546 0.17757861 -0.12272629 -0.13269739

Const_3 f4 [64]
000000 4b 7b 07 3f 15 ec 6e 3f 62 75 b9 bd 0c 22 05 3f
       0.52922505 0.9332898 -0.09055592 0.52005076
000010 b1 0b 02 bf fe 06 84 be 6c 63 89 3d 30 67 68 3f
       -0.5079909 -0.25786585 0.06708416 0.9078245
000020 ae 3d 3e be cf 09 9d be 7d 2a 5f bf 97 c2 e1 bd
       -0.18578216 -0.30671546 -0.87174207 -0.11023443
000030 94 07 fe 3e 75 e9 32 bd b7 cd 23 3f f3 18 05 bd
       0.49615157 -0.043679673 0.6398577 -0.032494497
000040 f0 44 45 3f 5d 0d 18 be cb 01 f3 bd 67 68 99 bc
       0.77058315 -0.14848848 -0.11865576 -0.01872654
000050 22 3c 01 bc 58 87 a3 bc 25 8d 92 bb 2b b5 8f be
       -0.007887872 -0.019961998 -0.004472392 -0.28067908
000060 80 2c fb 3e 84 aa 7f be 91 1b d5 3e 96 9b 24 be
       0.49057388 -0.2496739 0.41622594 -0.16074976
000070 27 e3 48 bc b7 6f 0c bd af 23 fe bd 15 b0 4b 3f
       -0.012261189 -0.034286227 -0.1240915 0.79565555
000080 bf e9 9f bd c8 e9 54 bf cd 38 4a bd fb f0 f8 3e
       -0.078082554 -0.8316922 -0.049370576 0.48621354
000090 32 67 0f be 3e 62 61 3f 24 2f c9 3d f2 a7 91 be
       -0.1400421 0.8804053 0.098234445 -0.28448445
0000a0 d1 a4 e9 3e 68 3a 17 3e 56 d1 42 be ab 5a a6 be
       0.45633557 0.14768374 -0.19025168 -0.3249105
0000b0 91 a1 8d 3d 2b fa 71 3f c4 cf 89 bd c4 38 86 3e
       0.06915582 0.9452235 -0.06729081 0.26215184
0000c0 88 13 b3 be c5 30 e6 3e d4 17 84 bf 78 30 bd 3d
       -0.3497584 0.44959083 -1.0319772 0.0923776
0000d0 58 66 be bd de c8 41 bf b9 7e 5f 3f e5 75 90 be
       -0.09296864 -0.75697124 0.8730274 -0.28214946
0000e0 67 3b 5b be 04 6d 0c 3e 76 3b 7f be b4 4a 03 3f
       -0.21409379 0.13713461 -0.24925026 0.5128586
0000f0 1a 45 89 bd 87 65 07 bf ba 4f 9e bd ac fa 86 bd
       -0.06702633 -0.52889293 -0.077300504 -0.065907806

Const_4 f4 [128, 64]
000000 58 ba 24 3d 30 af 0a 3d e7 08 a1 3d 52 69 5a bc
       0.040216774 0.033858478 0.07863026 -0.013330774
000010 29 c8 b9 3a eb 2a 12 bd 38 ee 81 3d 33 19 01 3d
       0.0014174032 -0.03568546 0.06344265 0.031518172
000020 43 e3 e9 3b ea b3 a8 bd cc 6c 77 bd 4d 44 9c 3c
       0.0071376874 -0.08237441 -0.06040649 0.019075537
000030 bc 4d 96 bb b6 59 10 3d f6 fa b2 3c 1e 04 91 3c
       -0.0045869034 0.035241805 0.021848183 0.017702159
000040 af 66 77 bc c5 b9 21 3c 09 6a ac bd 54 4e 9f 3d
       -0.015100165 0.009870951 -0.08418662 0.07778612
000050 30 53 58 3d f5 10 a2 bd 83 72 47 bd 47 d5 57 bc
       0.05281371 -0.079133905 -0.04869319 -0.013173408
000060 ed a9 8b 3d 4f 58 af 3c e2 5c 88 3d fd a0 aa 3d
       0.0681952 0.021404414 0.06658341 0.08331487
000070 1f f7 00 3d 67 9a 80 3a 74 bb 86 bd 8d 6b 92 bd
       0.031485673 0.000981164 -0.065787226 -0.0714942
000080 4f ad 1a 3d 7e e2 83 bd 68 f7 8e 3c 2c 7a b3 3d
       0.037762936 -0.06439684 0.017451957 0.08763537
000090 2f d8 8e bd 47 c2 57 bd 50 12 4c 3d ec 50 01 3a
       -0.069748275 -0.05267551 0.04982215 0.0004933018
0000a0 8d ae 50 3d 2e 82 a4 3d 44 12 8e 3d a3 1f 9a bd
       0.050947715 0.08032642 0.06937078 -0.075255655
0000b0 bf 93 43 bd 9d 90 91 3b cf a2 ed 3b e5 6e 5d bc
       -0.047748324 0.004442288 0.0072520743 -0.013515209
0000c0 e5 9f 29 3d e3 6c ae bc c7 7b a8 bd 8c 83 58 3d
       0.041412253 -0.021292156 -0.08226734 0.052859828
0000d0 af 99 21 bd 73 0f 22 3d d8 b4 aa bd f0 bb 95 bd
       -0.039453205 0.039565515 -0.083352745 -0.07311237
0000e0 ba f5 94 bd 5e a7 ab 3b 6a a4 a2 3d 81 46 54 bd
       -0.07273431 0.0052384576 0.07941516 -0.05182505
0000f0 c0 b5 5e 3d fb dd 7a 3c 84 af ca bc 15 58 aa bc
       0.05437255 0.015311713 -0.024741895 -0.020793954
000100 88 b9 62 3d 48 7c 8a bd cf 0a f8 bc a3 89 de 3c
       0.055352718 -0.06761986 -0.030278591 0.02716524
000110 36 e9 e8 3c 09 58 96 3c cd 21 e9 bc 26 14 c8 3c
       0.028431516 0.018352525 -0.0284585 0.02442367
000120 e9 57 11 bd 3a e6 55 3d 6a 28 1b 3d 29 79 a3 bd
       -0.03548423 0.052221514 0.03788034 -0.07982094
000130 b9 58 e7 3c 4b b6 43 bd 39 db 44 bd 6f 86 10 3d
       0.028240548 -0.04778127 -0.04806063 0.035284456
000140 dc 56 ab 3d 5b ef 78 3d 83 97 19 bd 7b 22 aa 3d
       0.083661765 0.060775142 -0.03749801 0.08307358
000150 3b 54 66 bd 7e 4c 9c bd a9 5c 2d 3d 53 17 7f 3d
       -0.056232672 -0.07631777 0.042324696 0.062278103
000160 10 2e 79 bd 9b ce 1e 3d d9 36 39 3d 51 35 83 3d
       -0.060834944 0.038771253 0.045218322 0.06406654
000170 ce 4f 43 3d 1f 55 98 bc af 40 a7 bd 3a 47 92 3c
       0.04768353 -0.018595276 -0.08166634 0.01785623
000180 39 5d 59 3d a8 db b7 3c 88 c1 32 3d 4d 4a bb 3c
       0.05306742 0.022443607 0.043641597 0.022862578
000190 20 5f b7 3d 5b c1 89 3d 0d 81 38 3c 63 b4 8b 3b
       0.089536905 0.06726333 0.011261237 0.004263447
0001a0 60 d1 af bc da 24 82 3d 7c 9f 40 3d 68 7d b4 3d
       -0.021462142 0.06354685 0.047027096 0.08812982
0001b0 6d 19 47 bd 3d f7 95 bb 64 b6 11 3d 92 67 bc 3c
       -0.048608232 -0.0045765922 0.035574332 0.022998605
0001c0 1f 35 7a 3d 2c 47 bb bc 45 e5 d4 3c 06 eb 18 3b
       0.061085816 -0.022861086 0.02598823 0.0023333444
0001d0 58 bb 10 3d 40 a6 9a 3d 27 7b 53 bd 58 e0 d4 3c
       0.035334915 0.07551241 -0.05163112 0.025985882
0001e0 09 5d 3e bc cc e3 92 3d 54 b7 94 3d 9a 85 a4 bd
       -0.011618861 0.07172355 0.072615296 -0.08033295
0001f0 94 78 7a bc db a6 a4 bd b4 f3 9c 3b 6a af b1 3c
       -0.015287537 -0.08039638 0.004789794 0.02169009
000200 12 05 87 3d bb 04 55 3d 85 26 92 3d 4c e1 a5 bd
       0.06592764 0.052006464 0.07136253 -0.080996126
000210 f8 79 15 3d 6e 28 d3 3d db f0 75 be d1 87 7e 3d
       0.03649327 0.10310446 -0.2401766 0.062141243
000220 07 7c 17 be d1 8e 9a 3d 9e d0 cc 3d 1e c6 ae bd
       -0.14793406 0.07546771 0.10000728 -0.085338816
000230 4e 91 f7 bd 5a 3b 58 3d 16 4a 42 3d 54 c8 79 3c
       -0.120882615 0.052790977 0.047433935 0.015245516
000240 62 72 a8 3d 62 1c 98 bc 9f 21 20 bd a8 9f af 3d
       0.08224942 -0.018568221 -0.039094564 0.08575374
000250 96 bc 19 3b 31 e1 b6 3d 80 74 a1 bd 3c 5c 82 3d
       0.0023458353 0.089296706 -0.07883549 0.063652486
000260 f2 18 63 3d 7f 95 27 3d 92 61 a3 bd 43 3f 57 3a
       0.05544371 0.040914055 -0.079775944 0.0008211026
000270 f5 3b 48 bd d1 fc c0 bb 85 e8 95 bb d7 97 66 bd
       -0.048885304 -0.005889513 -0.0045748376 -0.05629715
000280 8e b8 5a 3b d8 0f f7 3c b2 82 90 3d 60 94 18 bd
       0.0033374163 0.030158922 0.07056178 -0.037250876
000290 9d 53 0d bd 79 47 29 bd cf 28 9a bd 10 56 83 bd
       -0.034503568 -0.041327927 -0.07527315 -0.064128995
0002a0 15 35 e7 bc 51 21 07 3d 09 0b 9b bd e8 b4 09 3d
       -0.028223554 0.032990757 -0.07570464 0.03361979
0002b0 f5 3c 10 be c0 ac 6b bd e5 70 4d 3c 0a b3 76 bd
       -0.14085753 -0.057537794 0.012539123 -0.06022934
0002c0 5e 8e ec bc a7 b5 af bc 46 a5 fc 3b 85 e6 ae 3c
       -0.02887648 -0.021448923 0.007710132 0.021350155
0002d0 02 b8 3f bd a7 ea b9 bd c5 a0 65 3d c4 c5 aa bd
       -0.046806343 -0.090779595 0.056061525 -0.08338502
0002e0 23 3f 11 3d 04 d9 eb 3d 71 73 1b 3e e9 72 10 3d
       0.035460602 0.11516002 0.15180756 0.035265837
0002f0 35 fd ae bc a5 63 d8 bc 79 06 ed 3d 74 a1 d4 3c
       -0.021360973 -0.026414702 0.115735 0.025955893
000300 66 01 15 3c 46 54 7a bd d8 c7 09 3e 33 4c f2 3d
       0.009094572 -0.061115526 0.1345514 0.1183094
000310 8d e6 7f 3d 73 51 5b bc 79 58 04 bd f2 1e 9e bd
       0.06247573 -0.013386118 -0.032310937 -0.07720746
000320 0e a1 8e 3d 36 db f7 3c e5 23 3e bd 66 f5 00 3c
       0.069643125 0.030255895 -0.04642095 0.007871008
000330 b5 90 3e bd fb 3b 34 bd 02 92 b6 bd e0 6f a8 3d
       -0.046524722 -0.044002514 -0.089145675 0.082244635
000340 95 eb 8a 3d d8 ad d9 3b a6 90 14 bc 13 5d 51 bd
       0.06783215 0.0066430382 -0.00906769 -0.051114153
000350 db 73 ae 3d 4c be 64 bd 89 bf af 3d 7d 76 38 bc
       0.085181914 -0.055845544 0.08581454 -0.011258719
000360 37 54 80 3d 32 9a 51 bd 70 ed 19 3e dd 06 ef 39
       0.06266063 -0.051172443 0.15031981 0.00045590746
000370 f2 a5 d7 ba 54 37 3d 3b 4a 25 a2 3d e7 0f 31 3c
       -0.0016452654 0.002887209 0.079172686 0.010807014
000380 ad ca f6 bd e6 e1 ab 3d 3f 2c e5 bb 18 06 e8 3c
       -0.12050376 0.08392696 -0.0069938 0.028323218
000390 fa 74 0f bd f7 b6 0c 3d bd 16 0d 3c 15 cd 03 39
       -0.035023667 0.034354176 0.008611378 0.00012569533
0003a0 10 88 e7 bc 61 01 04 bd 99 74 b2 bd b7 e9 b1 3b
       -0.028263122 -0.032227878 -0.087136455 0.0054294723
0003b0 8c b5 4b bd a9 05 a4 3d 57 c1 e7 3c 23 9a 32 be
       -0.049733683 0.08008892 0.028290434 -0.17441611
0003c0 fc d0 96 bd 26 b5 1f bc 8b e9 de 3d 11 f3 72 3d
       -0.07364079 -0.009747779 0.108843885 0.059313837
0003d0 54 ce 06 3d 60 1f 3d 3d 23 5a 2b 3e 3e 7a c2 bd
       0.032911614 0.0461725 0.16733603 -0.09495972
0003e0 8f d5 80 3d de 47 69 3d 57 5b 67 be 13 03 69 3e
       0.06290733 0.056953304 -0.22593437 0.22755079
0003f0 59 69 00 bd 95 74 00 3e a0 d1 7c 3d 8f 59 31 3c
       -0.031350467 0.12544473 0.06172335 0.010824575

Const_5 f4 [128]
000000 5b 46 ac bc 53 b5 03 3d 9a d1 ce bc 5a 64 1c 3d
       -0.021029642 0.032155346 -0.02524643 0.03818164
000010 66 9e 0a 3c ec dd 5e 3c 5a cd 84 3e 28 5f 54 3d
       0.008460617 0.013602715 0.2593792 0.05184856
000020 bd b6 86 bd 4b d4 1e bd 4d 0e 81 ba 24 06 80 bb
       -0.06577823 -0.038776677 -0.0009846181 -0.003906982
000030 95 8e b9 bd 50 97 01 3d 70 06 1e bd 75 a7 db 39
       -0.090603985 0.031638443 -0.038580358 0.000418957
000040 9a ce 00 bd ce 2c 9c 3c c8 21 6e bc 83 73 95 bd
       -0.03144703 0.019064333 -0.014534421 -0.07297423
000050 74 90 ee 3c 57 02 a4 3b 8e b0 bf bd b4 98 2e bd
       0.029121615 0.0050051617 -0.09359847 -0.042626098
000060 f5 70 65 bc f6 f2 1f bd 1a 8c 96 bd fe 67 07 be
       -0.014003982 -0.039050065 -0.07350941 -0.13223264
000070 ab 6d 8d bd 8b 7c d7 3c a1 6d 83 bd b2 23 6d 3b
       -0.06905683 0.026304504 -0.064173944 0.0036184606
000080 44 0a de bc b4 68 22 3e 88 cf 74 bd 6b fd 4c bf
       -0.027104504 0.15860254 -0.05976823 -0.80074185
000090 8b c6 68 bd b1 f4 51 3e b2 3e 81 bd ff dc f7 bd
       -0.05682997 0.20503499 -0.06310786 -0.121026985
0000a0 ba 7d 98 3b d4 d6 ef bc 46 ee 8d 3c 17 89 fb be
       0.0046536596 -0.029277243 0.017325532 -0.4912803
0000b0 fd c0 25 3c 75 fe 7f bd e5 95 fc 3c 78 21 5a bc
       0.010116813 -0.06249853 0.030833194 -0.013313644
0000c0 2e 57 10 be fa 31 19 bd ff d1 2e 3e c6 31 42 bd
       -0.14095756 -0.037401177 0.17072295 -0.04741075
0000d0 0b 2f 69 be 10 45 d7 bc 8b 97 eb 3c 74 10 d6 bd
       -0.22771852 -0.026278049 0.028758785 -0.10452357
0000e0 87 85 81 bb e1 fc 04 be 24 61 1f bd 97 c3 98 bd
       -0.0039526853 -0.1298709 -0.038911 -0.07459181
0000f0 da 13 e4 bd 1c 9c c8 3c d5 6d bc 3d 6e 8b aa bd
       -0.11136599 0.024488501 0.09200636 -0.08327375
000100 3c 67 3d 3d d9 bd 2b be 71 74 00 bd 47 76 1c be
       0.04624103 -0.1677164 -0.031361047 -0.15279494
000110 41 a7 f9 bd 6d 0f 05 3d c2 5e cd bd c7 24 18 3d
       -0.12190104 0.032485414 -0.10027839 0.03714445
000120 c0 d2 33 bd 96 ed 44 bd 75 ca d5 bd f1 10 08 bc
       -0.04390216 -0.048078142 -0.10439006 -0.00830482
000130 75 78 08 bd 7d 4d 03 bc 4b cf 2e be 48 47 8f bc
       -0.033318 -0.00801408 -0.17071263 -0.017490044
000140 e3 f9 fb bc 85 07 13 bd 4c 1f bc 3c f0 fd a4 bc
       -0.030758804 -0.035895843 0.022964142 -0.020140618
000150 e0 c2 46 bd 19 5f 56 bd c3 5a 3e bd a7 f7 71 bd
       -0.04852569 -0.052336786 -0.046473276 -0.05907407
000160 ce 52 56 bd 6c 94 6b 3e 2e ba fb 3c 09 0e 2b 3d
       -0.052325062 0.23005837 0.030728426 0.04176143
000170 3a 6f 81 bb 00 9f 82 bd 48 d2 0a 3c 0c 41 82 bd
       -0.003950027 -0.06377983 0.0084729865 -0.06360063
000180 52 ef 54 bd 20 d5 9d bd e5 ee e6 3c be 89 db 3c
       -0.051986046 -0.07706666 0.028190086 0.026799079
000190 db f0 05 bd d2 20 c0 bd c4 c3 2c bd b3 6b f4 bd
       -0.0327004 -0.0938126 -0.042178884 -0.119346045
0001a0 f4 e5 a9 bd 76 1a 8d bd 81 cd 19 bd a8 b1 09 be
       -0.08295813 -0.06889813 -0.0375495 -0.13446677
0001b0 13 ea 85 3a 2f d7 d7 bd 85 f0 61 bd e8 ff fa bd
       0.0010216854 -0.1053909 -0.055161018 -0.122558415
0001c0 4f 52 70 3e 70 b8 14 be 60 65 24 be dc 0d 16 bd
       0.23468898 -0.14523482 -0.16054296 -0.03663431
0001d0 6c 56 e1 bb 75 5a 44 bd d2 7f b2 3d bc 03 8c bd
       -0.0068767574 -0.04793783 0.08715786 -0.0683665
0001e0 b7 ce 62 3f 82 59 79 bd 24 79 4a 3c 03 3a 6a bc
       0.8859667 -0.060876377 0.012357984 -0.014296058
0001f0 93 ad 43 bc e7 91 94 bd b9 c5 92 bd 1c ed f1 3c
       -0.011943239 -0.07254391 -0.07166619 0.029532008

Const_6 f4 [257, 128]
000000 05 78 02 ba f8 7a 7a bd 71 75 5a ba 88 d4 6c bb
       -0.0004976991 -0.06115243 -0.000833354 -0.003613742
000010 cc bf eb bd 62 fd 07 bc bf 1f bd be 22 bb e3 bd
       -0.11511192 -0.008300157 -0.36938283 -0.11119677
000020 31 47 8a bd 64 45 1f bc ea ce 0e ba 70 2e a2 bd
       -0.0675186 -0.009721134 -0.0005447703 -0.079190135
000030 c1 1e 48 bc 65 6e f4 bb 26 a3 a4 ba 4a 91 98 bc
       -0.012214364 -0.007459449 -0.0012560829 -0.018623967
000040 92 dc 41 bb ab d9 21 bd 99 31 33 bd 6b 3b 08 ba
       -0.0029580933 -0.039514225 -0.043748472 -0.0005196842
000050 63 1c 9b bb 02 5f 0e bd 82 52 d5 bd 09 71 88 bb
       -0.0047336086 -0.034758575 -0.10416128 -0.0041638655
000060 24 27 b4 bd 8b ed bc bc 29 0e a0 ba fc ed 7d bb
       -0.08796528 -0.023062488 -0.0012211251 -0.0038746586
000070 eb 47 81 bc cb fa 56 bd f5 04 01 bd 69 e6 25 bc
       -0.015781363 -0.05248527 -0.031498868 -0.010125735
000080 7f 50 29 bd b4 14 30 be 32 ff 5a bc 09 d9 c3 bb
       -0.041336533 -0.17195398 -0.013366507 -0.0059768003
000090 11 28 8b bc a0 ec 0e bf 50 ef a7 ba 7d f9 15 bb
       -0.016986879 -0.5582981 -0.001281241 -0.0022884302
0000a0 ab 42 2c bb df 66 84 bc eb 03 1d bd b4 7d 9f bd
       -0.0026284854 -0.016162334 -0.038333815 -0.07787648
0000b0 e8 60 09 bd 5d 0d ae ba e5 01 0f bc c4 92 a1 ba
       -0.033539683 -0.0013279129 -0.008728479 -0.0012327065
0000c0 69 1f 9c ba 65 2a a1 bb 7b 92 f0 be 9c 71 a1 bb
       -0.0011911216 -0.004918384 -0.46986756 -0.0049268734
0000d0 97 7c 80 bb 9f b5 10 bd 1a 2c fe bc 9c 6b 8c bb
       -0.0039211023 -0.035329457 -0.031026889 -0.004285289
0000e0 cc 19 2f bc e3 3f 0d bb c5 15 e8 ba 5e 18 4c bd
       -0.010687303 -0.0021552972 -0.0017706683 -0.049827926
0000f0 14 20 11 ba 33 32 8d b8 f8 8d 09 bd 63 da 0b bc
       -0.0005536091 -6.732754e-05 -0.033582658 -0.008535954
000100 76 a4 10 bc 0b 3c fb bb fe 44 87 ba 83 b2 13 bc
       -0.008828273 -0.00766707 -0.0010320244 -0.0090147285
000110 31 d9 2d bb 1d df 07 bc 00 7f 69 ba 91 c3 ca bb
       -0.0026527161 -0.00829294 -0.0008907169 -0.006187864
000120 97 c5 04 bc 4b 0a 03 bb e7 e1 03 bc 79 65 05 bd
       -0.00810375 -0.0019995149 -0.008049465 -0.032567475
000130 76 fc 5e bd da f1 3d ba a8 64 79 bc 38 75 e0 bb
       -0.054439984 -0.00072458165 -0.015221752 -0.006849911
000140 d2 8e 14 bb 02 8c dd bc 22 93 89 bc 7d 56 e9 ba
       -0.0022668135 -0.0270443 -0.016793791 -0.0017802265
000150 b9 c4 69 bd 7b 60 b6 bc 5d 88 07 bb ba 78 73 bd
       -0.057072375 -0.022262802 -0.0020680644 -0.059441306
000160 0d 7a 10 bc 03 24 ed be 5a 2b 03 bc a6 90 85 bd
       -0.008818162 -0.46316537 -0.008005941 -0.0652173
000170 83 8b 42 ba 53 73 bf ba 4b ca bf bc be 06 73 bd
       -0.00074213016 -0.0014606513 -0.02341189 -0.0593326
000180 06 ab 3a ba 74 50 a2 bc e7 17 ce b9 42 4b 97 bd
       -0.00071208214 -0.019813754 -0.0003930919 -0.07387401
000190 56 28 18 bc 49 e1 4a bd e3 77 56 bc b8 a6 21 bd
       -0.009286961 -0.049531255 -0.013090107 -0.039465636
0001a0 da 13 8c bb ca a7 0c bb fe c6 0c bd a8 33 0b bc
       -0.0042748274 -0.0021462315 -0.03436946 -0.0084962025
0001b0 93 10 b4 bb ec 5d 1c ba 80 73 46 bb 49 37 2b bb
       -0.00549514 -0.0005964923 -0.0030281246 -0.0026125482
0001c0 b9 d1 c6 3d 75 de 18 bc 14 51 63 bb 99 59 10 be
       0.0970797 -0.009330382 -0.0034685778 -0.14096679
0001d0 71 a3 7a bd b0 cc f2 bc ab 21 99 bc e1 3d 1d bd
       -0.061191026 -0.029638618 -0.018692812 -0.03838909
0001e0 d9 a2 09 3d 66 84 80 bc de 7c 4c be 15 d6 4a bc
       0.03360257 -0.015688132 -0.19969508 -0.012380143
0001f0 b8 2b 27 bd 48 5c a6 bb 01 27 6d bd 19 d6 8f bd
       -0.040813178 -0.0050769188 -0.057898525 -0.07023258
000200 75 76 21 bd dc ec d3 bc b9 b6 d3 bd 3e a1 47 bd
       -0.03941961 -0.02586978 -0.10337586 -0.048737757
000210 f0 e9 13 bd 82 e8 0d bb 6b 0e 3e be f2 ce 90 bd
       -0.036111772 -0.0021653478 -0.18560188 -0.07070722
000220 68 9b 72 3d 63 c4 56 bd 96 32 da bc b4 5f 80 3d
       0.05923024 -0.052433383 -0.02663545 0.06268254
000230 4f 4f 0d be 78 a7 53 be 5e 72 60 bc ed f6 9b bd
       -0.13799785 -0.20669353 -0.013699142 -0.07615457
000240 be ba 2b 3d fe b2 01 bd 2e a7 32 3d bf 49 39 3d
       0.041926138 -0.03166484 0.043616466 0.045236345
000250 35 47 ef b9 25 83 53 3b 59 41 0c 3e 49 00 b9 bd
       -0.00045638686 0.0032274213 0.13696803 -0.090332575
000260 f0 68 52 bd aa 93 0f bd 97 e8 fd 3d dd 2c 11 be
       -0.051369607 -0.035052933 0.123978786 -0.1417727
000270 0b 7a 03 3e dc 1d 1a 3d 13 3f 1a bd 97 2d 60 bd
       0.12839524 0.037626132 -0.03765781 -0.054730978
000280 7f 87 14 3d 3c 1a 6e bd 7c b9 90 be 39 73 8c bd
       0.03626203 -0.058130488 -0.28266513 -0.068579145
000290 82 20 6d 3d 14 49 64 bd ac a5 7e be 21 33 43 be
       0.05789233 -0.055733755 -0.24867886 -0.19062473
0002a0 44 8f a2 bc c2 5c 91 3d a1 bf c4 bb bb 93 88 3c
       -0.019843705 0.0709777 -0.0060042893 0.016672006
0002b0 49 ca 62 3d f1 df 2c ba 78 ad 2a 3d d5 71 92 be
       0.055368695 -0.0006594649 0.04166934 -0.28602472
0002c0 bb d0 b9 3c 5b 8d 90 3c 24 e3 38 be 1e 55 52 3d
       0.022682538 0.017645529 -0.18055397 0.051350705
0002d0 95 0d 8e 3c 8d 79 bf 3c ca 9a 5f 3d 44 83 e5 bd
       0.01734046 0.02337339 0.054590978 -0.112066776
0002e0 2c dc dc 3c 68 96 45 be 1f 3f d6 bd cc 8e 8d bd
       0.026960455 -0.19295657 -0.10461258 -0.06912002
0002f0 13 98 19 be 3b 1c 38 bd b5 b4 d5 bd c3 51 2b 3e
       -0.14999418 -0.044948798 -0.10434858 0.16730408
000300 25 9e 1a bd 38 3e 29 bc 91 1b 10 be 04 30 43 be
       -0.037748475 -0.0103297755 -0.14073016 -0.19061285
000310 b4 25 dc bd e1 69 ff 3a a0 cb 96 be 9a 1f 5c 3c
       -0.10749379 0.001948651 -0.2945223 0.013435269
000320 2e d9 d2 bc c3 15 86 be f5 7c 5d bd d7 8c 5e 3d
       -0.025738325 -0.26188478 -0.054074246 0.054333534
000330 cf d4 77 bd 0c bb 1c 3d 1f 1a 22 be 13 0c 28 3d
       -0.060505684 0.03826432 -0.15830277 0.04102714
000340 9d a0 09 3e d1 da 54 3d 36 57 de bc 3f b5 6d be
       0.13440175 0.051966492 -0.027141195 -0.23213671
000350 98 5c 04 3d f5 d8 04 3d 50 38 6d be e9 86 00 3d
       0.032314867 0.03243347 -0.23166013 0.03137866
000360 6c 9c 00 3d e3 ce e6 bd 01 58 bf 3a fd fa df bd
       0.031399176 -0.11269929 0.0014598371 -0.10936544
000370 4b 22 65 be 47 ca ca 3c c7 fc ac bc 41 51 6c 3d
       -0.22376363 0.024754656 -0.021116627 0.057694677
000380 8e f2 e9 bd 49 3e 99 bb b6 2b 59 3c 31 7b 74 bd
       -0.11423217 -0.0046766144 0.01325505 -0.059687797
000390 15 f6 11 bd cd 00 24 3d aa 8d 1a 3d c7 e2 e6 3d
       -0.035635073 0.040039826 0.037732758 0.11273723
0003a0 2f c9 80 be 1f b0 dc bd d6 53 a5 b9 38 2c de bd
       -0.2515349 -0.1077578 -0.00031533715 -0.10848278
0003b0 69 ea 5b bd e1 6d 2d 3d 6c af 53 3d f7 71 dd bd
       -0.053690348 0.042341117 0.051680967 -0.10812753
0003c0 d4 60 e8 3d ac 17 53 3e 3a 3f 74 be 4f 69 a5 bd
       0.113465935 0.20614499 -0.23852244 -0.08076727
0003d0 3d a6 c8 3c ce 42 92 bd f3 54 51 be 5d 7b f2 3b
       0.024493331 -0.07141648 -0.20442562 0.00739996
0003e0 6c 16 e2 bc 38 4c 9f bd 0b 6c da bb 9c 9b 4f be
       -0.027598582 -0.077782094 -0.0066657118 -0.20274204
0003f0 d1 f1 0f bd 61 00 5a 3d 15 c9 61 3c 34 46 5f bd
       -0.035142723 0.053223018 0.013780852 -0.05451031

Const_8 f4 [256]
000000 63 7c b9 3e e4 27 0d ba 54 ca b3 bd d7 ea cb bd
       0.36227712 -0.00053846673 -0.087788254 -0.099569015
000010 82 7a 10 be c5 49 b5 3d b3 93 26 3f fd 66 d7 3e
       -0.14109233 0.08851961 0.6506912 0.4207076
000020 d0 59 94 3d 57 5f d4 3e 95 aa e4 3d d0 c5 29 bd
       0.07243693 0.4147899 0.111653484 -0.041448414
000030 94 66 79 bd 3f 97 8c bd c5 d2 86 bd 5d 66 51 bd
       -0.06088884 -0.068647854 -0.0658317 -0.05112301
000040 53 73 3e 3e 8e 37 4d bd d0 f6 2a bd a8 e0 c7 bd
       0.1859868 -0.05010181 -0.041739285 -0.09759647
000050 ad 11 69 bd 82 ea bd bd 0c 9b 54 bd 57 dc c1 3e
       -0.056901623 -0.092732444 -0.051905677 0.37863418
000060 4e 31 49 bd e9 99 33 bd 6e 9c 0a be c7 84 1f 3f
       -0.049119286 -0.043847952 -0.13536236 0.6231198
000070 7c 0c 85 3f 9f 15 46 bd ef ba b3 bd b8 73 3d bd
       1.0394435 -0.048360463 -0.08775889 -0.046252936
000080 f3 8f b2 bc b5 02 07 3f f3 43 a1 bd 57 f7 2f bd
       -0.021797156 0.52738506 -0.078742884 -0.04296049
000090 86 63 7b bd b8 1f c2 bd 79 2b df bb 81 82 8f 3d
       -0.06137421 -0.09478706 -0.0068106023 0.070073135
0000a0 5f 42 97 bd 8d 3f a8 bd d8 d8 d8 bd d7 67 b3 bd
       -0.07385706 -0.08215246 -0.10588235 -0.0876004
0000b0 5c 11 3f be 9f e4 98 bd 33 da 9d bd d5 9c c6 bd
       -0.18658966 -0.07465481 -0.07707634 -0.09697882
0000c0 2a 7d 5c bd e3 7c 7c bd e6 a8 5d 3d b8 8b 5f bc
       -0.053830303 -0.06164254 0.054116152 -0.013644151
0000d0 1b 56 06 be 11 56 f4 bd 57 ff a3 bd ec 6f 2e 3f
       -0.13118784 -0.11930478 -0.080076866 0.6813953
0000e0 48 e9 1b be 4b 99 47 bd 37 94 9b bd 44 7b 91 bd
       -0.15225708 -0.048730176 -0.07596629 -0.07103589
0000f0 25 aa 56 bd 0b fa f5 3e 50 d2 6d bd 00 22 8c 3f
       -0.052408356 0.4804233 -0.058061898 1.0947876
000100 f1 ac ee 3e 48 51 16 3f 3a dd 62 bd 03 60 b8 bd
       0.4661632 0.58717775 -0.05538676 -0.09002688
000110 0d 9c 12 3f c8 a1 c3 bd ef bd 8e bd 00 76 45 bc
       0.57269365 -0.09552342 -0.06969821 -0.012052059
000120 02 08 dc 3e f7 f7 ba bd 97 a5 9a 3c ab 67 0f 3c
       0.4297486 -0.09129327 0.018877788 0.008752744
000130 60 79 51 bd 2b 0f 84 3f 8f d3 e4 bc a5 55 42 bd
       -0.051141143 1.0317129 -0.02793291 -0.04744496
000140 4c a1 94 bd 7c c9 b7 3c a2 d9 2d 3f fa a2 57 bd
       -0.072573274 0.022434942 0.67910206 -0.05264566
000150 25 f5 1a 3f 17 7e 2b 3f 3d 4c b7 bd bb a9 c5 bd
       0.6053031 0.6698927 -0.08950088 -0.09651514
000160 a2 67 97 3c 30 d2 08 3f 1b e2 a1 bc 62 1d 39 bd
       0.018482033 0.5344572 -0.019761136 -0.045194037
000170 db cc c2 bd d5 c6 fe 3e b3 6f 10 3d c4 92 44 bc
       -0.09511729 0.49761072 0.035262775 -0.011997882
000180 47 00 4a bd c7 0a 4c bd 31 88 6c 3f d7 5c b9 bd
       -0.04931667 -0.049814966 0.9239531 -0.09050911
000190 8d 86 46 bd d2 7e d7 bd f1 62 4a bd 44 d1 09 3f
       -0.04846816 -0.10522236 -0.049410764 0.5383494
0001a0 d4 f2 0c 3f ae 45 0a 3f f0 f9 13 bd 90 bc 57 3e
       0.55058026 0.5401257 -0.03612703 0.21068025
0001b0 48 7a 36 bd 4f 03 8a bd 5d 86 ae 3e 84 dd cd bd
       -0.04455021 -0.06738912 0.34086886 -0.100520164
0001c0 e6 71 0e 3f ae 69 0a be 89 ba 38 be 1e c3 7a 3f
       0.55642545 -0.13516876 -0.18039908 0.97953975
0001d0 c9 11 0f be 8a ef 4f bd f2 c2 3f 3f ad 32 77 bd
       -0.13971628 -0.05076555 0.7490684 -0.060351063
0001e0 d8 60 fb 3e 6d f8 52 bd c5 b7 9e 3e ce 3f 17 3f
       0.49097323 -0.05150645 0.3099958 0.59081733
0001f0 59 cb 3b bd e4 a9 29 3d 43 73 24 3f d8 72 7f 3e
       -0.045848224 0.041421786 0.64238375 0.24946153
000200 fa b1 66 bd ca df 22 3f cc 0d a5 3e 48 6f 38 3e
       -0.056322075 0.63622725 0.3223709 0.180112
000210 20 a6 59 bd 58 fd bb bd ca 26 97 bd ab 89 1a be
       -0.053136945 -0.09179181 -0.07380445 -0.15091579
000220 bf f8 c7 3e 3d 41 83 3e 70 53 08 3f 3d 4b b9 bd
       0.39056966 0.2563571 0.53252316 -0.09047554
000230 0a c7 43 bd 71 2a 23 3f 8a b0 ac bd 01 84 30 bd
       -0.04779724 0.63736635 -0.0843211 -0.04309464
000240 b1 6f 54 bd a0 a7 67 bd 39 3e 28 be c9 8c 37 3f
       -0.05186433 -0.056556344 -0.16429986 0.71699196
000250 42 a8 b3 bd 49 c2 3b bd c8 b3 aa bd fc c2 14 be
       -0.08772327 -0.04583958 -0.08335072 -0.14527506
000260 dd 1e 54 bd 16 1b dd bd 00 c6 a0 bc 5e d0 95 3f
       -0.051787246 -0.10796182 -0.019625664 1.1704214
000270 94 08 58 bd 60 96 84 bd 21 c5 fc 3e e0 54 69 bd
       -0.052742556 -0.06473994 0.49369147 -0.05696571
000280 cf e2 99 3f 38 d8 5a 3f 91 37 f9 bd 01 2a 05 3f
       1.2022341 0.85486174 -0.121688016 0.5201722
000290 37 08 62 bd 02 83 a5 bd 9b a1 b7 3e 43 06 63 bd
       -0.055183616 -0.080816284 0.35865483 -0.055425894
0002a0 58 03 c5 3e 15 e9 44 bd 1b d0 88 bd 4f a4 68 3f
       0.38479114 -0.048073847 -0.06680318 0.90875715
0002b0 af d3 27 bd 0f 39 bc bd c0 3c 66 bd 0f d1 35 be
       -0.04097336 -0.091905706 -0.05621028 -0.17755531
0002c0 87 b2 23 3f 40 db 73 3f 03 42 2e bd 7d 28 28 bd
       0.63944286 0.95256424 -0.042543422 -0.041054238
0002d0 f8 29 ac bd f0 cd 44 bd 48 0a b1 bd 49 d4 0e 3f
       -0.084064424 -0.04804796 -0.08644539 0.5579267
0002e0 25 23 0d 3f 29 1d 86 bd ca ee 35 bd cc 06 3c bd
       0.5513175 -0.065485306 -0.04441718 -0.04590492
0002f0 52 b1 f9 3e e9 16 a3 3d d5 53 be 3d 32 6b 18 3f
       0.48768097 0.07963354 0.092933334 0.5953857
000300 bf 71 c6 bd f2 24 09 3f 05 d3 02 be 0e 35 95 bd
       -0.09689664 0.53572 -0.1277581 -0.0728551
000310 9d 08 ae bd 1e e5 db 3c 7d dd 50 bd 65 e9 5a bd
       -0.084977366 0.02684265 -0.050992478 -0.05344524
000320 a9 76 05 be 62 0e 97 bd db c6 b8 bd 19 4c c1 bd
       -0.13033547 -0.0737579 -0.09022304 -0.094383426
000330 7d bf 8d bd 3a 6b 13 3f d6 d6 81 3f 5e 53 5e 3f
       -0.06921289 0.5758549 1.0143688 0.8684596
000340 1a 80 93 bd cd 5d d9 bd 6f b9 f2 bb 24 a8 ec bd
       -0.07202168 -0.10613594 -0.0074073593 -0.11555508
000350 ac 94 c5 3e e9 d7 df 3d 93 b6 7a bd 19 9d 73 3f
       0.3858999 0.109298535 -0.061209273 0.95161587
000360 9f 6f c2 bd 91 a3 db 3b af fe e9 bd 6e e0 1b bd
       -0.09493946 0.0067028482 -0.1142553 -0.03805583
000370 19 54 12 be e4 b3 09 be 52 b9 3b be 1a d4 3e bd
       -0.14289893 -0.13447529 -0.18332413 -0.046588995
000380 a7 82 dd bb 89 30 49 bd eb 3b c4 bd c5 b3 13 be
       -0.0067599597 -0.049118552 -0.09581741 -0.14424045
000390 d0 00 5f bd 2e 01 95 3f 79 d8 fb 3d 14 ec 7c 3f
       -0.054444134 1.1640985 0.12297148 0.98797727
0003a0 67 66 95 bd 83 6e 52 bd e5 88 af bd b4 a6 c7 bd
       -0.07294922 -0.051374923 -0.085710324 -0.09748593
0003b0 bd c8 12 3f 05 d7 27 3e c3 69 58 bd d7 6b 3e bd
       0.5733755 0.16390617 -0.052835237 -0.046489563
0003c0 d0 88 78 bd 00 3f 6d bd e7 43 69 bd 59 28 7a 3d
       -0.06067735 -0.05792141 -0.056949522 0.061073635
0003d0 ec 88 4a bd 43 a0 5d bd 67 f2 eb 3e 41 c9 25 be
       -0.049446985 -0.054107916 0.46083376 -0.16190054
0003e0 e8 07 39 bd 0d c9 86 bd 97 11 bf bd 8d 65 71 bd
       -0.045173556 -0.06581316 -0.09329527 -0.058934737
0003f0 07 fa 07 3f 3a 18 10 3f 06 57 39 be d8 13 3b bd
       0.53115886 0.56286967 -0.18099603 -0.04567322

Const_9 f4 [100, 256]
000000 54 ec 1d 3e 20 de e9 3d 36 1d 93 3d d3 43 84 3c
       0.15422183 0.1141932 0.07183306 0.016145622
000010 04 fa bd 3b 50 05 39 be 00 52 72 3e b6 14 a3 bc
       0.0057976265 -0.18068433 0.23664093 -0.019907337
000020 32 ed 18 be 40 f3 19 be 66 62 7f 3d eb 8e 9e 3d
       -0.14934233 -0.15034199 0.0623497 0.07742103
000030 cb 09 ec 3c aa 80 73 3d 12 be bd 3d 2c 38 3c bd
       0.028813263 0.059448875 0.09264769 -0.045952007
000040 a3 c7 b8 bd b5 20 aa 3d 65 08 aa bd 6d 9f 4c 3d
       -0.09022453 0.083070196 -0.083023824 0.049956728
000050 a3 e9 84 be 33 87 4f bb 4d 20 90 3d 3d bf 3d be
       -0.259595 -0.0031666278 0.07037411 -0.18529983
000060 4e 89 79 3c 56 95 ad bc 2c e1 e9 3d 6d 23 4a bc
       0.01523049 -0.021189373 0.11419901 -0.012337548
000070 20 a2 62 3e 4a e2 8f bd 18 8c d7 3b 06 da b0 bd
       0.22132158 -0.07025583 0.00657798 -0.08635335
000080 50 6b 80 3d f4 a7 88 bd da b4 6e bd 78 82 a0 bd
       0.06270468 -0.066726595 -0.058277942 -0.07837385
000090 a3 d3 28 3d 9a 81 88 bb c4 51 f5 3d c0 7f 81 bd
       0.041217458 -0.0041658403 0.11978486 -0.063231945
0000a0 40 e2 35 bd 2d 68 cd bc 8c 61 c3 bd a7 c5 60 3d
       -0.044405222 -0.025074089 -0.0954009 0.054875996
0000b0 d5 1c 8d 3d 33 79 b3 3b 9a 0e 53 bc 49 45 55 3c
       0.06890265 0.0054770946 -0.012881899 0.013017007
0000c0 39 36 8a bd 10 a0 76 bd b7 78 18 3d cf a7 aa bc
       -0.067486234 -0.06021124 0.037224498 -0.02083197
0000d0 03 37 33 3e 61 4f 2f 3e 67 7e db ba 15 c2 9f 3d
       0.17501454 0.17120124 -0.0016746045 0.0780069
0000e0 2f 39 92 bd 68 fa 81 bb 67 68 5c 3c e0 5a b1 3d
       -0.07139813 -0.0039666183 0.013452626 0.08659911
0000f0 d3 81 53 bc 37 8b bb bd eb f4 a2 3d f2 6c 0b 3e
       -0.0129093705 -0.091574125 0.07956871 0.13615778
000100 60 43 31 be e1 53 ff 38 e0 d9 d3 3c e0 b6 e4 bc
       -0.17310858 0.00012174971 0.025860727 -0.027919233
000110 bd 2a b1 bd 46 a0 c7 bd cd 5f c6 3b 82 6a 7d 3d
       -0.0865073 -0.097473666 0.006053901 0.061869152
000120 8d 1e c0 3d cd c8 57 3a f4 4c 22 3e b0 3e 58 3d
       0.09380827 0.0008231521 0.15849668 0.05279416
000130 f2 05 19 3d 76 32 39 3d 76 ea ea bd 3a ca d1 bb
       0.037359186 0.04521414 -0.11470501 -0.006402281
000140 51 8c 89 3e eb 46 2c bd 1c e8 2e 3e 64 0c e9 bc
       0.26864865 -0.04205982 0.1708073 -0.028448291
000150 2d f4 9b 3d 03 e3 e5 bd 1d 51 3f 3d 6d d8 cd 3c
       0.07614932 -0.1122494 0.046708215 0.025127614
000160 80 ec 55 3c 04 d4 22 be 01 1b 56 3e d1 df 45 3c
       0.013056874 -0.1590119 0.20908739 0.012077288
000170 8d 77 c6 bd 55 47 22 be 9a 05 a7 3d e1 6d c0 3d
       -0.09690771 -0.15847524 0.08155365 0.09395958
000180 fb f5 a5 3d 80 ce 19 3d 5b 49 a6 3d 00 00 7b 3d
       0.08103558 0.03755045 0.0811946 0.061279297
000190 af b7 96 3d 0e 16 82 3d ab bd 3d bd 70 37 44 3d
       0.073592536 0.06351863 -0.04632346 0.04790443
0001a0 3b 56 20 be ad 78 a2 3e 6e 2e f8 bc 71 b4 80 be
       -0.15657894 0.31732693 -0.030295577 -0.25137666
0001b0 97 d3 b7 bd a7 92 36 bc ca f1 1c 3e ff 0d 3c bd
       -0.089759044 -0.011143363 0.1532661 -0.045911785
0001c0 16 22 ff 3c c8 57 2b 3e 53 2e 71 3d 07 51 0a 3e
       0.031144183 0.16732705 0.05888207 0.13507472
0001d0 06 03 08 3d 2f ca 4a bd 18 38 46 bd 65 2c 9c 3d
       0.03320601 -0.049509224 -0.04839334 0.07625655
0001e0 34 04 5a 3e b1 17 08 bd 39 9a 20 be d2 4b 6f 3b
       0.21290666 -0.03322572 -0.15683831 0.0036513698
0001f0 ec c5 01 bd 6b aa ab bd c4 68 00 bd 73 38 76 be
       -0.031682894 -0.08382114 -0.031349912 -0.24044971
000200 00 16 94 ba 04 a1 e2 bd 7c ae b4 3d 49 2c 77 be
       -0.001129806 -0.110658675 0.08822343 -0.24137987
000210 f8 8b bb bd c5 a6 7c 3e b0 82 04 3d 7d cc 96 3c
       -0.09157556 0.24672993 0.032351196 0.018408054
000220 58 1e 6a 3d 22 6a 8e 3d fd bd 8c 3c 4d e5 ab 3b
       0.057157844 0.06953837 0.017180437 0.0052458406
000230 53 95 1c 3e 21 7a 32 3e a4 d7 87 3e 3d 85 1b 3d
       0.15291338 0.17429401 0.26531708 0.037968863
000240 e9 9c 16 3d c7 8b ce bc a7 55 31 3d 24 fa 1d 3e
       0.036770735 -0.025213135 0.043294575 0.15427452
000250 ca cf 9c 3d 1a 08 ad bc bb 37 a7 3d 6c 90 58 3d
       0.0765682 -0.021122027 0.081649266 0.052872106
000260 cd 8b 11 3d ce dd 18 3e d4 5e 58 3c 3f 0a 6a 3e
       0.035533715 0.14928362 0.013206203 0.22855471
000270 63 1e 9a 3b 5a b0 a3 3d 19 23 6e be 9d de 81 bd
       0.0047033294 0.07992621 -0.23255576 -0.06341288
000280 81 44 03 3e f7 74 4a 3e ac 1b 25 3e d8 62 88 be
       0.12819101 0.19771181 0.16123837 -0.26637912
000290 2d 4c 53 bd 93 8e 27 3d bb fe b4 bc 32 1e b8 3d
       -0.05158632 0.040907454 -0.022094121 0.08990134
0002a0 6e a1 9f 3d 4b df 94 bd 71 91 1c be dc 6c 04 3e
       0.07794462 -0.07269152 -0.15289856 0.12932152
0002b0 f4 d9 29 3d fa 64 a2 3d d0 94 94 bd 95 1e 6f bd
       0.041467622 0.07929416 -0.07254946 -0.058378775
0002c0 7c f4 3b 3d 0d 8c cd 3d 93 e9 74 be a3 bf 86 bd
       0.045887455 0.10036478 -0.23917226 -0.065795206
0002d0 33 80 92 3d f1 09 52 bd 67 ce 3b 3d 2b 3b c6 bc
       0.07153358 -0.051279012 0.045851137 -0.024198135
0002e0 b6 d3 a7 bd bb 26 6a bd 0d 1e 9a bc 91 90 aa 3d
       -0.081946775 -0.057165843 -0.018813157 0.08328355
0002f0 76 e9 04 3e a4 48 35 3c 8e 60 a0 3e 90 1a 1f be
       0.12979683 0.011064682 0.31323665 -0.15537477
000300 f5 0d 82 be b9 74 15 be 03 28 1d be 50 48 ac bc
       -0.25401273 -0.14595307 -0.15347295 -0.021030575
000310 9a d6 b3 bd f8 0c 01 be a5 d1 a2 bd 2b 32 6d bd
       -0.087811664 -0.12602603 -0.07950143 -0.057909172
000320 48 e0 a1 3e 1b b5 bc 3d d3 11 cb 3d b8 a3 1d bc
       0.31616426 0.092142306 0.09915509 -0.009621553
000330 d7 49 d1 3d aa 23 3a bd 3e e6 16 3e a9 f9 c2 3d
       0.10219162 -0.04544417 0.14736268 0.09520275
000340 10 c0 c3 3d 4e 2b 1f 3d 25 73 05 3e 76 c9 32 3e
       0.095581174 0.038859658 0.13032205 0.17459664
000350 f6 3d c9 bd ca 5c b5 3e da 03 2f 3c b2 ec 61 3d
       -0.09826271 0.35422355 0.010682071 0.05515737
000360 ab d3 8a 3d b8 1a 87 be 51 0f d1 3d e1 7b d3 3a
       0.06778654 -0.26387572 0.102079995 0.0016134941
000370 c0 a9 01 3d 74 be 06 3e 43 11 8c be fd 66 5b 3d
       0.031656027 0.1315859 -0.2735692 0.053565014
000380 e9 d6 14 3e b9 fc 45 3d 20 40 73 3d d8 bc 97 3d
       0.14535107 0.04833672 0.059387326 0.07409066
000390 08 3e 22 3d 1d 07 0e 3e ab b5 0e be f5 cd f1 3b
       0.03960994 0.13869901 -0.13936488 0.0073792883
0003a0 8e 7d f3 bd 1e a3 49 3c 33 d8 69 3d 35 56 48 be
       -0.11889182 0.012306957 0.05709095 -0.19564135
0003b0 5d 97 55 bd 55 41 7c be 29 26 6d bd 65 05 a7 bb
       -0.052146304 -0.24634297 -0.05789772 -0.0050970786
0003c0 0d df af 3d 9a 36 76 bb cd 81 7c 3b 2d 45 ee bc
       0.085874654 -0.0037569166 0.0038529516 -0.02908572
0003d0 59 de 5a 3d 40 31 b2 3d c9 23 2c 3c d4 96 3c 3d
       0.053434703 0.087008 0.010506579 0.04604228
0003e0 fa 32 b6 bd ba e0 c7 be a7 e8 e8 3c 3a 0c bd bc
       -0.08896442 -0.3903864 0.02843125 -0.02307712
0003f0 54 a4 9b bd f7 7b 15 be 5e f4 65 bd b1 c8 8d 3c
       -0.075997025 -0.1459807 -0.05614125 0.017307611
