model/RegAlloc/ggnn_drl/rllib_split_model/src/node_colour_model_inference/model.onnx (onnx, 75408 bytes, 6 tensors)

fc1.bias f4 [64]
000000 74 db 86 bd c9 f1 b3 3d 92 ff 9c bd 87 bc b1 bd
       -0.06584826 0.08786351 -0.07665934 -0.08678537
000010 b7 ef e4 bc 99 83 43 3d 2f f6 80 bd ed ab 27 bd
       -0.027946336 0.047732923 -0.06296956 -0.040935446
000020 b6 46 8e 3e 3f 1e c5 bd ff d5 91 bd a1 27 a7 bd
       0.27788323 -0.096249096 -0.07120895 -0.081618555
000030 ed 66 c5 bd 93 fe 53 bd 23 76 48 bd 62 fb 51 bd
       -0.09638772 -0.051756453 -0.04894079 -0.051265128
000040 c6 8b 8a 3e 15 33 8c bd c0 05 8e bd 82 1b e1 bc
       0.27059764 -0.068456806 -0.069346905 -0.027478937
000050 c1 47 b1 bc 40 69 54 bd 8a 80 09 bd 87 81 e1 bc
       -0.02164066 -0.051858187 -0.03356985 -0.027527584
000060 38 31 28 bd 4b e6 8e bd a0 fb c1 bd 83 43 c8 bc
       -0.041062564 -0.06977519 -0.09471822 -0.024446255
000070 dd dc 4a bd c1 95 10 3e 7a c0 03 bd ad d0 2a bd
       -0.049527038 0.14119627 -0.03216598 -0.041702915
000080 38 64 ca 3d b2 9b 85 bd a5 ce e3 bc 3e 5e 76 3e
       0.098823965 -0.06523837 -0.027808497 0.24059388
000090 10 b9 2f bd 82 71 e9 bc 85 e0 e2 bc 21 69 2d bd
       -0.0429011 -0.028496508 -0.02769495 -0.042336587
0000a0 7d 2d 12 3e 77 7d 9a bd 31 29 17 3e 57 f3 8b bd
       0.14275165 -0.07543462 0.14761807 -0.06833523
0000b0 fd 6b 67 bd 7a 67 59 bd c7 b0 01 bd c2 85 c4 bd
       -0.05649947 -0.0530772 -0.03166273 -0.09595825
0000c0 4d 2f 49 bd 3b 67 09 bd 1f d1 3c 3e f6 50 24 bd
       -0.049117375 -0.033545714 0.18439148 -0.040116273
0000d0 93 e0 4a bd 2c 91 2a 3e 93 1a 47 bd 15 c3 21 bd
       -0.049530577 0.16656941 -0.048609328 -0.039492685
0000e0 21 cc bd bc 73 d3 42 bd b3 4d 61 3e 53 03 9f bd
       -0.023168625 -0.047564935 0.22002296 -0.07764306
0000f0 dc 53 11 bd 3a 8a 84 bd 00 82 48 bd cc b1 4f 3d
       -0.035480365 -0.06471677 -0.048952103 0.05070667

fc1.weight f4 [64, 100]
000000 92 10 cf 3d 33 20 db bc b9 67 e0 bd d0 eb 3a 3d
       0.101105824 -0.026748752 -0.109572835 0.045635045
000010 80 52 31 be 78 3c 5e 3e d5 6c 0f 3e 12 15 4e 3e
       -0.17316628 0.21702754 0.1400636 0.20125225
000020 ea 7a 3c be ee 4a 85 3d 5f 5f 8c 3d 65 16 90 3e
       -0.18406263 0.06508432 0.06854128 0.28142086
000030 26 f1 53 be 62 e8 ac 3d a6 40 5f 3e 8a d5 50 3c
       -0.2069746 0.08442761 0.21802005 0.012746224
000040 54 da d9 3c 30 59 ab 3b 34 f4 e0 3d 88 e4 29 be
       0.026593365 0.005229138 0.10984078 -0.16591084
000050 17 c1 71 3d 27 90 47 bd 08 15 53 3e a4 6f 34 3d
       0.059022035 -0.04872146 0.20613492 0.04405178
000060 36 b7 5e be 5e ff 92 be b2 b6 f6 bc 67 38 72 bd
       -0.21749577 -0.28710455 -0.030116413 -0.05913582
000070 fe 55 79 3e c1 56 a5 3d ef 38 27 3e b9 6a 33 bd
       0.2434921 0.080731876 0.16330312 -0.04380295
000080 d0 86 82 3d e9 95 33 bd 99 31 f7 3d d2 e7 9c 3d
       0.0637337 -0.043844137 0.12070007 0.07661404
000090 31 7e c8 bd f5 15 38 3d a7 ae 22 3e 8f 2a ce 3d
       -0.09789694 0.044942815 0.15886937 0.10066711
0000a0 dd 1d 3f bc 31 fa eb 3d 47 d8 00 bd 6a 1a 5c 3d
       -0.011664835 0.115223296 -0.03145626 0.053736128
0000b0 04 28 47 bc 7d 04 e2 bd 43 2d ad bc ed 2d a4 be
       -0.012155537 -0.11036012 -0.021139747 -0.3206629
0000c0 44 81 35 be 55 4c 73 bd 1a bf 8e 3e 8d 91 33 3c
       -0.17725092 -0.059398968 0.27880174 0.010959995
0000d0 ee 24 e0 bd 76 9b b5 bc 3c d8 f5 3c 9c 0b 8b bd
       -0.10944544 -0.022168856 0.030010335 -0.06789324
0000e0 4b d1 22 3d c0 23 ef bd dd e4 8c 3e 9d 88 4d 3d
       0.03975038 -0.11676741 0.2751836 0.050179113
0000f0 d5 7c f4 3d 6c 65 9d 3e 01 f9 ec 3d 0a 19 4e 3d
       0.11937872 0.3074144 0.11570931 0.050316848
000100 f9 29 3a bd 1e 40 25 be 26 9c e7 3c 0f f8 01 be
       -0.045450184 -0.1613774 0.0282727 -0.12692283
000110 88 0e 97 be 32 17 59 3d 89 1c 27 bd ce c2 83 3c
       -0.29503274 0.053000636 -0.040798698 0.016084101
000120 72 0f 3a 3e ca d6 3e be 87 ff 14 3c 3c db 24 3e
       0.18169954 -0.18636623 0.009094126 0.16099256
000130 e3 4d 2c be 31 bd e6 bd 74 aa 08 3d 89 26 d3 3e
       -0.16826586 -0.11266554 0.03336568 0.41240337
000140 c6 14 da bd 7b ca 66 3d 21 33 ac 3c 77 ee cf 3e
       -0.106484935 0.056345444 0.021020474 0.40611622
000150 10 12 43 be 30 c7 41 39 c3 5b 25 3d 59 0a 30 bc
       -0.19049859 0.00018480117 0.040370714 -0.010744655
000160 2b 01 a7 3e 08 b7 75 bd 1b 5e 37 bb cc 3d 7f 3e
       0.3261808 -0.059989005 -0.0027979675 0.24925917
000170 6a 5c 7a bd af a4 b2 bd d7 63 43 3c 33 13 22 be
       -0.06112329 -0.08722817 0.011925659 -0.15827636
000180 09 8d 12 3f 16 0e 23 3e 92 00 c2 3e d5 93 c4 3d
       0.5724645 0.15923342 0.3789106 0.09598509
000190 3c 27 8e 3d 3c fc 42 3e e2 ce 97 3c 94 c5 c1 3d
       0.06941077 0.19041532 0.018531267 0.09461513
0001a0 6f 6e 41 be b5 78 5f be da 91 ff 3d 11 75 56 3f
       -0.18889783 -0.2182339 0.12478991 0.8377238
0001b0 ff f9 50 3e c0 e1 48 bd c7 77 2f be e0 83 dc 3e
       0.20407866 -0.049043417 -0.17135535 0.43069363
0001c0 09 3e fe bd dd 30 ec be 10 fe cd 3a 6f 41 15 be
       -0.12414176 -0.4613103 0.0015715975 -0.14575742
0001d0 84 03 7d bd 14 f8 1f bd 01 fe c8 3e e3 8a a0 3e
       -0.06177093 -0.039054945 0.3925629 0.31355962
0001e0 67 0b c3 3d f3 f3 0d 3f e3 a0 aa 3e 8d a6 70 be
       0.09523659 0.5545036 0.33325872 -0.23501034
0001f0 9a f9 5e bd 1e 73 9b be a9 de 84 3e 19 22 ea bd
       -0.054437257 -0.30361265 0.25951126 -0.11432285
000200 24 ea 8b bc 23 02 69 be 4b a1 a8 bd 5f 94 5a be
       -0.01707942 -0.22754721 -0.08233889 -0.21345662
000210 99 0d d5 3d 42 fb f5 bd 5c 0a b6 3e 7c 09 65 be
       0.10402984 -0.12010814 0.3555478 -0.22366899
000220 33 62 b5 be 39 66 1a 3f 8c 25 80 3e cd 4a 7e be
       -0.35426483 0.6031223 0.25028646 -0.24833222
000230 db b2 17 bd 9a f0 da 3e 43 0b 9f 3c 8f 78 ae 3d
       -0.037035804 0.4276169 0.01941455 0.085190885
000240 ef 5e a8 be 15 f0 a7 3e 8d 07 95 be 74 df 87 be
       -0.3288493 0.32800356 -0.29107323 -0.2653767
000250 ef 85 a6 3e fd 13 19 bf f7 26 e9 bd b7 6c cb be
       0.32524058 -0.59796125 -0.11384385 -0.3973138
000260 0a b8 02 3e fb 78 87 be df 62 e9 3d f1 6c bc be
       0.12765518 -0.26459488 0.11395811 -0.36801866
000270 15 7b 2a 3d d8 d3 1f bc e5 32 65 3d db 0c 69 bd
       0.041621286 -0.009755097 0.05595674 -0.056897026
000280 16 b6 99 3e ad b7 0d 3e 89 98 5b be f5 20 ad 3e
       0.30021733 0.13839598 -0.21444906 0.33814207
000290 50 bd ee bd a0 77 54 bd cb d3 cc 3d ff 1f 25 3c
       -0.11657202 -0.051871896 0.10001334 0.010078429
0002a0 96 45 2f be d9 03 b9 bd fd b3 e7 3e 72 98 75 3e
       -0.17116389 -0.09033937 0.45254508 0.23983935
0002b0 3a 4d de 3e c2 f2 cc be e4 2f 57 3e c8 5a 8e 3c
       0.43418294 -0.4002896 0.21014363 0.017377272
0002c0 20 de 86 bd 96 1f fa 3c 21 57 f9 bd 23 e1 07 3f
       -0.06585336 0.03053264 -0.12174822 0.53077906
0002d0 58 75 16 3e d8 ce 17 3e 59 26 8e 3e 11 a7 66 3e
       0.146932 0.14824998 0.27763632 0.22524668
0002e0 99 2f 05 3f c8 91 78 be 06 c8 b6 3e 4c 79 c8 bd
       0.52025753 -0.24274361 0.3569948 -0.097887605
0002f0 5e 0b ab 3e 2a 78 c4 be 93 3c f9 3d 0d 05 bc bd
       0.3340711 -0.38372928 0.12169757 -0.09180651
000300 36 76 f9 bd 31 1c 5a be 0c 7b 10 3f c7 48 46 3e
       -0.1218075 -0.21299817 0.56437755 0.193637
000310 70 67 a0 3d 56 f6 07 3f d3 0a 0d 3f 8c e6 84 3d
       0.07832229 0.53110254 0.5509464 0.06489286
000320 47 0d e4 bc 80 d4 d4 3b 9a 66 ff 3c 07 d7 10 bd
       -0.027838362 0.0064950585 0.031176854 -0.035361316
000330 c3 b0 9e bd 00 34 30 3a 33 bf ee 3a 9a 27 04 3b
       -0.07748558 0.0006721616 0.0018214941 0.0020165206
000340 9a 17 6f bc 25 7f 83 3d f3 9a e4 bc cd 95 1e bc
       -0.014593029 0.06420735 -0.027905917 -0.00967927
000350 27 6c 28 3d a5 e8 80 bd 0d 59 db 3c 53 23 b5 bc
       0.041118767 -0.062943734 0.026775861 -0.02211157
000360 6a 79 44 3d 83 31 5e bd cd 35 72 3b 9a 48 20 3c
       0.047967352 -0.054246437 0.0036958337 0.009782935
000370 08 c8 a4 bd 32 eb 94 bd 4a 16 1d 3d fa 6e ee bc
       -0.080459654 -0.072714224 0.038351335 -0.029105652
000380 93 42 73 3d 73 50 ca bd 1d 7a 4a bd 9b af a8 bd
       0.059389662 -0.09878626 -0.049432863 -0.08236619
000390 9d 9f 23 3d 67 ff 3d bb 60 cc 98 bc 9a 4a 88 bc
       0.03994714 -0.0028991343 -0.018652141 -0.016637135
0003a0 ea 14 a0 bd 2d 52 e8 3c 9a 5a 23 3b cb 55 8d bd
       -0.07816489 0.028359497 0.002492583 -0.06901129
0003b0 a0 20 1a 3d 9a b8 03 bb 63 12 c6 bd 07 55 5c 3d
       0.03762877 -0.0020099045 -0.09671476 0.053792026
0003c0 fa 16 5b 3d 7a 58 9a bc d8 66 8d bd 4d 90 83 3b
       0.05348871 -0.018841017 -0.069043815 0.0040150047
0003d0 b7 89 9a 3d 2b 76 bb 3d 50 95 9a bd ed 00 39 bd
       0.07545798 0.09153398 -0.0754801 -0.0451669
0003e0 58 76 9f 3d 1d 34 48 3d 37 8c 7d 3d 3a df 4b bd
       0.07786244 0.048877824 0.061901297 -0.049773432
0003f0 38 71 b0 3d ef 5b a8 bd 00 d7 9d bb 67 12 08 3b
       0.08615345 -0.0822066 -0.0048168898 0.0020762922

fc2.bias f4 [64]
000000 21 98 3c 3c ef ae 7c 3d cc d4 44 bc c2 a8 69 bd
       0.01151088 0.061690267 -0.012013625 -0.057045706
000010 3c 85 d8 bd cd a0 0e bc 0f 66 be bd 20 7f a3 bd
       -0.105722874 -0.00870533 -0.0929681 -0.079832315
000020 34 a8 ee bd c2 18 37 bd f4 66 e0 3c 31 13 d4 3d
       -0.11653176 -0.044701345 0.027392842 0.10355223
000030 3a 78 d7 3e 3d 71 ef bc ed f0 d7 bc 3d 31 f9 bd
       0.42083913 -0.0292288 -0.02636 -0.121675946
000040 1f 86 64 bc ad 80 c2 bb c1 45 0f bd 8c a5 90 bd
       -0.013947993 -0.0059357495 -0.034978632 -0.070628256
000050 00 f2 db 39 7b bc 1d bd a0 50 57 bd 52 4d 31 3e
       0.0004195124 -0.038509827 -0.052567124 0.17314652
000060 46 27 b0 bd 27 d4 f1 bd d7 88 fd 3c 23 c8 86 bd
       -0.08601241 -0.11808043 0.03094904 -0.06581142
000070 66 fb 0e 3e 2e 72 f7 bb ed 61 ca bc f8 39 2d 3b
       0.13963088 -0.007551453 -0.024704898 0.0026432257
000080 67 cf 21 3e aa 43 e7 bd 06 48 77 3c 28 c8 e6 bc
       0.15801774 -0.11292203 0.015092855 -0.028171614
000090 37 7b 5d bd 20 4b 59 bd 4e c5 9e bd cd fe f1 ba
       -0.054072585 -0.05305016 -0.07752477 -0.0018462777
0000a0 a3 71 7e bc 16 78 43 bd bb b5 04 3c 36 62 59 bc
       -0.015530023 -0.047721945 0.008099969 -0.013268044
0000b0 7f f7 f7 bc b2 d3 25 bd 4d c9 5e bd 12 6d 11 3e
       -0.030269383 -0.04048509 -0.054391194 0.14201763
0000c0 0f b5 29 3e 3d 07 0b be 42 b3 82 3a 70 d6 ed bc
       0.16572975 -0.1357698 0.0009971636 -0.029032916
0000d0 ac 99 a8 bd b8 02 f9 bd 0b f6 d8 bd 4b ea 21 3b
       -0.082324356 -0.12158722 -0.10593804 0.00247063
0000e0 c9 5d bd bb 40 40 f6 bd a4 15 a5 bd b4 dc d9 bd
       -0.0057790023 -0.120239735 -0.08060768 -0.10637799
0000f0 5f 1f 02 bd 1f d5 7d bc f4 af fd bc a5 be 88 3e
       -0.0317682 -0.015492707 -0.03096769 0.2670795

fc2.weight f4 [64, 64]
000000 6f ee 97 be fb 99 65 3b 50 91 03 3c e0 cd 86 bc
       -0.29674098 0.0035034406 0.008030251 -0.01645559
000010 9c 0c c8 3d a0 21 69 bb e0 b7 a1 3d 74 48 6d bd
       0.0976803 -0.003557302 0.078963995 -0.057930425
000020 53 31 c3 bc 40 01 1a bd b0 85 5d bd eb d3 89 3c
       -0.02382723 -0.03759885 -0.054082572 0.016824683
000030 fc 6e 0d bd f6 63 b5 3d 82 ce 95 3d 22 a7 26 3c
       -0.03452967 0.08856957 0.07314779 0.0101716835
000040 ac bc 09 be 62 f7 9f bd 02 61 97 3d 3c 43 53 3d
       -0.13450879 -0.078108564 0.0739155 0.05157779
000050 33 bf 39 3c e2 78 8d bd 9c 0a ed 3d ad 9c b4 3d
       0.011337089 -0.06907822 0.11574289 0.08818946
000060 c2 57 c3 3d ee 62 ee 3d 00 bc fd 3a cc 1d a9 bd
       0.09538223 0.11639963 0.0019358397 -0.082576364
000070 20 a4 5f be 0f 0d 05 be d8 b9 49 3d 80 2b 09 bb
       -0.21839952 -0.12993263 0.0492495 -0.002093047
000080 ae 7f b3 bd 9e cf c3 bd 56 9b c6 3d 3f 91 91 bc
       -0.08764587 -0.09561084 0.09697597 -0.017769454
000090 70 3b 33 3d a0 a0 8b bd 48 cf df 3c ae bf 5b be
       0.043757856 -0.06817746 0.02732052 -0.21459839
0000a0 f8 80 08 bd 24 2a 20 3d 3a 6c e5 bd 49 c3 2d be
       -0.03332612 0.03910269 -0.11202283 -0.16969027
0000b0 08 d2 aa bc cc 81 15 bd 00 3f 74 bc f4 bd 7c 3d
       -0.020852104 -0.036500737 -0.0149075985 0.06170459
0000c0 96 e1 c0 bd 80 7f 89 3b 87 9a 1f bd ea 0a ec bd
       -0.09418027 0.0041961074 -0.038965728 -0.11525519
0000d0 d4 bb 62 bd 6f ef 2c be 82 23 84 bd df 18 8b bd
       -0.055354908 -0.16888212 -0.06452085 -0.06791853
0000e0 90 1d e3 3d 20 87 e8 3b c0 fe 4f bd 08 95 d5 bc
       0.11089623 0.0070961863 -0.050780058 -0.02607204
0000f0 a6 05 d8 bd ee 67 d8 3d 7e 19 98 bd 9c 1b 4a bd
       -0.10547952 0.10566698 -0.07426737 -0.049342737
000100 4f d5 51 3e f6 e4 cb 3e ac 2a 93 bd 04 00 1b 3d
       0.20491527 0.3982312 -0.071858734 0.03784181
000110 7d 33 e9 3d 2c ba ac bd 22 6b c8 3d a0 59 59 3c
       0.11386774 -0.08433947 0.09786059 0.013265997
000120 b6 55 c9 be b4 bf cb bd 3a 0d ac 3d fb ad 33 bd
       -0.39323205 -0.09948674 0.0840096 -0.043867093
000130 c0 04 3e bc 60 57 91 3b 64 5f 5d 3d fa a2 be 3d
       -0.011597812 0.0044354647 0.05404605 0.09308429
000140 84 b4 a8 3e 25 ad 32 3d 18 a2 25 3d 4f ef 0d bd
       0.32950222 0.043622155 0.040437788 -0.03465205
000150 9f 55 d0 3e 56 1f f8 bc c0 0f ce 3d f2 e6 c5 bd
       0.40690324 -0.03028838 0.10061598 -0.0966319
000160 e6 b0 82 bc 80 fb 0c bb 08 41 ae 3c 13 8d a1 3e
       -0.015953492 -0.002151221 0.021271244 0.31552944
000170 11 3d 15 3e 8b 53 a4 be 20 44 c5 3b 00 f0 44 38
       0.14574076 -0.32094988 0.006020084 4.695356e-05
000180 0b 0e 00 be f8 eb e0 3d 3c 0c c5 bd de e6 f2 be
       -0.12505357 0.109825075 -0.09621474 -0.47441763
000190 98 b4 7b 3d bf d7 ed 3d d4 78 3c bc 0f f8 87 bd
       0.061451524 0.11613416 -0.011503417 -0.0663911
0001a0 7b bf 0b be d8 15 24 3d f0 2a 8c bd df 69 eb bd
       -0.13647263 0.040059894 -0.06844127 -0.11494803
0001b0 5c 46 08 bd 96 13 c3 3d b0 37 ff bd 68 14 ec bd
       -0.033270225 0.0952522 -0.124617934 -0.1152733
0001c0 98 48 90 bd 70 ee 3b 3d 52 b4 72 be 28 ed aa 3c
       -0.07045096 0.04588169 -0.23701599 0.020865038
0001d0 e6 af 92 bd b9 af bd be 4c 14 a1 3d 8a 88 0e be
       -0.07162456 -0.37048128 0.078651994 -0.13919273
0001e0 76 96 ac bd 1a 5c 88 bd 9c ef e7 be fe f5 87 bd
       -0.08427136 -0.06658192 -0.45299995 -0.06638716
0001f0 9c c4 9f bd 60 b5 90 3d 1c ec 90 bd da d7 0d 3e
       -0.07801172 0.070658445 -0.07076284 0.13851872
000200 72 cd 3a be 95 f8 a1 bc e0 1b cd 3b a6 74 c4 3d
       -0.18242434 -0.019771853 0.0062594265 0.095925614
000210 63 75 2d bd b9 b4 cb ba 40 87 b6 bb 0a 53 8d 3d
       -0.042348277 -0.001554153 -0.0055703223 0.06900604
000220 fc 05 a8 3b 16 35 ea bd f8 c3 64 3d d1 ab ca 3d
       0.0051276665 -0.114359066 0.055850953 0.09896053
000230 3a 26 bf bd fe 5f a3 3d 74 96 c6 bd ee 18 6e bd
       -0.09333463 0.079772934 -0.096966654 -0.058129244
000240 23 b7 3e 3c d2 6c af 3c 9e a2 a7 bd 00 0f e8 bd
       0.011640343 0.021414194 -0.08185314 -0.11330986
000250 9d 6c d5 bd 5f 88 19 3e 34 b7 19 3d 84 27 86 bd
       -0.10421107 0.14993428 0.03752823 -0.06550506
000260 00 3d 48 bd d4 19 71 bd de 00 b7 bd 4e 37 b5 bd
       -0.0488863 -0.058862522 -0.08935712 -0.08848439
000270 b4 15 44 be b6 d1 d5 3c a8 2c 86 bc e0 31 f6 3c
       -0.19148904 0.026100975 -0.016378716 0.03005308
000280 69 4e af 3a 18 39 ff 3c 86 31 86 bd f8 73 02 be
       0.0013374808 0.031155154 -0.065524146 -0.12739551
000290 86 25 9a bd 3a 00 1e bd 18 ff c1 bc 6f ed e3 3c
       -0.07526688 -0.038574435 -0.023681208 0.027823178
0002a0 20 7e 55 bb 2a 7a 89 3d 6a 22 ba bd 84 2e 41 be
       -0.0032576397 0.06712754 -0.09088595 -0.188654
0002b0 2c 73 17 3d c0 ab ed bd 3e 22 d1 3d c4 4e 2c bd
       0.03697507 -0.11605024 0.10211609 -0.042067304
0002c0 b0 5e db 3c 64 10 1f 3d 2d 6f d8 bd 6e 00 18 be
       0.026778549 0.03883399 -0.1056808 -0.14843914
0002d0 48 79 ac 3d ab 53 38 3d b0 af 6c 3c 8d 0e b1 3d
       0.0842157 0.045001667 0.014446184 0.086453535
0002e0 50 03 6f 3d a0 f5 1d bc 16 c3 97 bd 94 5d a1 bd
       0.05835277 -0.009641081 -0.074102566 -0.07879177
0002f0 fb 4a a5 bc ae 78 88 3d 8c 7f c3 3d 6d bc 30 bd
       -0.020177355 0.06663643 0.09545812 -0.043148447
000300 29 13 6a 3d 67 23 ce 3d 08 48 8a 3d 08 2f 80 3d
       0.05714718 0.10065346 0.0675202 0.062589705
000310 f8 32 76 3d b6 4b f0 bb 9e 72 96 3d d8 a8 eb 3d
       0.0601072 -0.007333244 0.0734608 0.11506814
000320 f3 4e 8c 3d 2e aa c3 3d 2a c1 87 bd 62 ec a0 bd
       0.06850996 0.095539436 -0.0662864 -0.078575864
000330 08 ca fa 3d 10 75 89 3d 60 17 bd 3d d1 fa 3c 3d
       0.12245566 0.06711781 0.09232974 0.046137635
000340 aa d8 ac be da e8 73 bc 8c fa 9e bd 1b f7 87 3d
       -0.33759052 -0.014887059 -0.07762632 0.066389285
000350 74 d8 f5 3d 16 26 d6 3d d2 59 a0 bd 54 c1 3b bd
       0.12004176 0.10456483 -0.07829632 -0.04583867
000360 92 e7 23 3d b4 d2 cc 3d d8 0d a0 bd c8 1d 52 3c
       0.040015765 0.10001126 -0.078151405 0.012824483
000370 dc 31 df bc e1 09 22 bd 10 cf 9f bd 04 ee ef bd
       -0.027245454 -0.039560203 -0.07803166 -0.1171532
000380 17 71 a0 bd 4c 61 87 bd 3a 1c 15 bd bb 1d 30 3d
       -0.0783407 -0.06610355 -0.036403872 0.042997103
000390 00 e0 30 bb 7f 55 a0 bc 2c 29 9b 3d 74 fe 20 be
       -0.0026988983 -0.019572018 0.07576212 -0.15722066
0003a0 44 58 ea bd 06 1a b9 3d 88 b0 0a be 30 e7 68 3d
       -0.114426166 0.09038167 -0.13543904 0.056861103
0003b0 b0 e2 5b 3d c4 86 17 bd 2e e5 a8 bd 0a ff be 3d
       0.053682983 -0.036993757 -0.082468376 0.093259886
0003c0 fa 79 b0 bd ca f9 c9 3d 7e b3 34 3c d4 ea f0 bd
       -0.08617015 0.098620966 0.011029122 -0.1176354
0003d0 18 52 b8 3d 0f 9d 29 bd e8 8b 88 bd 52 08 6a 3d
       0.09000033 -0.04140955 -0.0666731 0.05713684
0003e0 30 95 e8 bd cc 95 04 3d ee 88 d5 3d 00 2a ea 3b
       -0.1135658 0.03236942 0.10426508 0.00714612
0003f0 3c 80 5c bd 6c aa 5e 3d 24 7b e5 bd 46 96 23 3d
       -0.05383323 0.054361746 -0.11205128 0.039938234

fc3.bias f4 [113]
000000 b2 84 a3 3d 54 96 8b 3f 95 cb 28 3f 35 48 83 3f
       0.07984294 1.0905252 0.6593564 1.0256411
000010 22 53 8e 3e 2d 07 c9 3f 25 78 86 3f 2e fd 81 3f
       0.277978 1.5705315 1.0505415 1.0155389
000020 e4 2d ac 3f 25 c3 8f 3f 19 4e 2f 3f b5 c0 b6 3f
       1.3451505 1.1231428 0.6847854 1.427756
000030 ea 08 d2 3f 0b 4b b2 3f 8b 3b 9d 3f 12 c9 df 3f
       1.640897 1.3929151 1.2283796 1.7483237
000040 c5 7d c2 3f 4f 5e c5 3f 7b 11 a0 3f 34 49 ce 3f
       1.5194632 1.5419406 1.2505335 1.611609
000050 e9 d1 5d 3f 7c 16 97 3f b6 74 50 3f d3 f2 98 3f
       0.8664842 1.1803737 0.81428087 1.1949104
000060 c3 07 cb 3f ef 6c 4a 3f bf 65 34 3f 29 07 fd bd
       1.5861744 0.7907247 0.7046775 -0.12354881
000070 78 e8 26 3f 1f fa 39 3f b0 f8 14 3f 9b fd 4e 3f
       0.6519847 0.7264728 0.58191967 0.8085572
000080 d3 b5 eb 3d 97 2d ce 3f 29 d5 93 3f db c1 68 3f
       0.115092896 1.6107663 1.1549426 0.909208
000090 5d d3 66 3f 13 03 93 3f 84 d0 a8 3f b6 c9 84 3f
       0.90166265 1.1485313 1.3188634 1.0374057
0000a0 44 d5 b4 3f dd 92 c5 3f a2 d0 05 3f 11 01 16 bd
       1.4127584 1.5435444 0.52271473 -0.03662211
0000b0 37 56 9b 3f 0d 66 aa 3f 98 da a6 3f 25 89 bb 3f
       1.2135686 1.3312393 1.303546 1.4651228
0000c0 8a 88 c8 3f 6f 44 2a 3f 7c c7 bd 3f 84 00 a9 3f
       1.5666668 0.6651067 1.4826503 1.3203282
0000d0 89 bb 86 3f 62 7e be 3f f4 02 74 3f 12 ba b8 3f
       1.0525981 1.4882319 0.95317006 1.4431784
0000e0 f6 7b 40 3f d0 54 cf 3d 6b cd 9c 3d cb 7b eb bd
       0.7518915 0.101235986 0.07656368 -0.11498221
0000f0 a2 65 f5 3d 43 14 ac bd 49 24 83 bd c3 08 c0 bd
       0.119822755 -0.08402302 -0.06403405 -0.09376671
000100 c3 73 98 3c 40 c3 f2 3d 9e 7c 99 3d 74 4a e6 bb
       0.018609887 0.11853647 0.07494472 -0.0070279185
000110 c1 d0 19 3d 37 b5 f3 3c 4b db 35 bd e2 c4 c9 bd
       0.0375526 0.029749496 -0.044398587 -0.098520055
000120 7c 0c e5 bd 09 b9 f3 bd 90 9f cc 3d 88 6f c3 bc
       -0.11184022 -0.11900527 0.09991372 -0.023856893
000130 d7 ab 87 bd 9b e4 8b bd 9e cd c4 bd 1c d8 2f 3d
       -0.06624573 -0.068307124 -0.09609531 0.042930707
000140 c3 59 30 3b e7 86 3c 3d e2 77 01 bd 4f 21 4c 3d
       0.002690897 0.04602709 -0.03160847 0.049836453
000150 97 09 2b bd ec cb 43 3d 4e 1a b9 3d 58 67 ed 3d
       -0.041757192 0.047801897 0.0903822 0.11591977
000160 47 80 be 3d ad 63 b0 3d 32 d7 1e 3f 5a a4 d6 3f
       0.09301811 0.08612762 0.6204711 1.6768906
000170 dc 40 b6 3f 40 65 bf 3f 84 ed ea 3f be c2 48 3f
       1.4238544 1.4952774 1.8353734 0.78422153
000180 92 13 d9 3f 32 48 bb 3f 8f 74 d2 3f 2a 74 d6 3f
       1.6959097 1.4631407 1.6441821 1.67542
000190 81 b1 9b 3f 63 e3 c1 3e 37 0f b1 3e be 52 1c be
       1.2163545 0.37868795 0.3458192 -0.15265939
0001a0 8e 71 b2 3f ec ea 84 3f 26 a1 34 3f 04 64 01 3f
       1.3940904 1.0384192 0.70558393 0.50543237
0001b0 84 f6 68 3f 81 9b e4 3e 04 ed 54 3f 7a 78 2a 3f
       0.91001153 0.4464989 0.8317416 0.6659008
0001c0 07 9c 4a 3f
       0.7914433

fc3.weight f4 [113, 67]
000000 3a 3a ea bd fe d4 bf bd 11 5b b1 3d 66 e9 07 bd
       -0.11436887 -0.09366797 0.08659948 -0.03318157
000010 86 d7 d5 3d d7 23 21 3d 7f 37 9f 3d a6 d9 ca bd
       0.104414985 0.03934082 0.07774257 -0.099047944
000020 02 0a 70 3d 99 f0 aa 3d 8e 9b e4 3d 43 ca f1 bd
       0.058603294 0.083466716 0.11162482 -0.118061565
000030 09 82 03 3d e9 8d e4 bd 1c fc 6a 3d e4 7d 07 3d
       0.032106433 -0.1115988 0.057369336 0.033079043
000040 f6 32 e0 bc cb 4e af 3d e9 b2 3e 3c ee 4d 21 bd
       -0.02736805 0.085599504 0.011639335 -0.03938096
000050 eb 7d e1 bd 6f c3 cd 3c c9 ad a1 bb 7e e7 b6 bd
       -0.11010345 0.025117604 -0.004934047 -0.089308724
000060 8f ea 39 bd 68 fa b6 3d 0e a7 d9 3d 12 ed d6 3d
       -0.045389708 0.0893448 0.10627566 0.10494436
000070 98 c7 79 3d 6d f9 e3 3d 57 40 88 bd bb 1a 40 bd
       0.060981363 0.111315586 -0.06652897 -0.046900492
000080 f0 e4 2a bd 1e cd a0 3c bd f5 02 3d 1a f0 64 bc
       -0.041722238 0.019629057 0.031972636 -0.01397326
000090 e1 dc ec 3c ac af be bd ac 28 ce bd 64 4a f0 3b
       0.028913917 -0.093108505 -0.10066351 0.007333087
0000a0 68 ac 91 bd d7 0f ac bd e9 6e 8a 3d 30 4e e1 3d
       -0.07112962 -0.08401459 0.06759436 0.11001241
0000b0 af ed 1a bd 4d 9c 89 3d 6e 24 af 3c b8 d7 b0 bc
       -0.03782433 0.06719265 0.021379676 -0.021587238
0000c0 47 81 27 3d 3e 8c 13 3d 35 e7 83 3d 1b 8b 60 3c
       0.040894773 0.036022417 0.064405836 0.01370504
0000d0 36 9f 9a 3d 1d ad cd 3d ef bf b6 3c d2 a5 4d 3d
       0.07549898 0.10042784 0.022308318 0.050206967
0000e0 b8 ed a0 3d c2 6e a9 bd 25 4f ee bd ce 5b 8c 3d
       0.07857841 -0.082730785 -0.11636189 0.06853448
0000f0 c1 43 3c bd 9b ba a5 bc 04 a2 c0 bd d1 a8 bc bc
       -0.045963053 -0.020230582 -0.09405902 -0.023029717
000100 75 3b 93 bd ec 41 f0 3d f1 09 79 bc 6d eb b4 3d
       -0.07189075 0.117313236 -0.015200124 0.088339664
000110 c4 eb 34 3f 66 b5 68 3e 1f 4b 2e 3f c7 09 8b 3d
       0.7067225 0.22725448 0.68083376 0.06788974
000120 f2 65 9c 3e 3e cb c8 bd 62 e9 cb 3c 8e 66 70 bd
       0.30546528 -0.0980439 0.024891559 -0.058691554
000130 48 ec 1d 3f 46 7f 56 3f 67 fd 16 3f 13 34 0e be
       0.6168866 0.83787954 0.5898041 -0.13887052
000140 09 33 11 3f 52 cc 83 3d e1 aa 95 3e df 30 a1 bd
       0.567185 0.064354554 0.29231933 -0.078706495
000150 20 ad b0 3e ed a5 8e bd 45 ad c7 3d 68 3c 96 3c
       0.34507084 -0.069652416 0.097498454 0.01833935
000160 90 25 b6 3d a4 b2 ea bd e1 08 84 3f 91 6a a0 3e
       0.08893883 -0.11459854 1.031521 0.31331304
000170 d2 c2 80 bd 49 08 88 3f 1d 0b d7 3c 28 7e 29 3f
       -0.06287159 1.0627528 0.026250416 0.66208124
000180 2f f1 2a 3f e2 69 14 3e 92 20 1d 3f 76 01 17 3c
       0.66774267 0.14493516 0.61377823 0.009216657
000190 c8 fe 80 3d 33 5f 78 3d 46 cf 71 3e 19 cd 83 3c
       0.06298596 0.060637664 0.23614225 0.01608901
0001a0 49 34 80 bd c1 76 8e 3b cc b4 a4 3e da 6a 15 bc
       -0.062599726 0.0043476527 0.32169187 -0.009119714
0001b0 87 a9 e5 bc ca 37 a5 bb ce e0 06 3e b9 8c ae 3d
       -0.028034938 -0.005042051 0.13171694 0.085229345
0001c0 73 91 ae 3e 7c ad 2e 3d b6 01 5a 3f 68 99 48 3e
       0.34095344 0.042645916 0.8515886 0.1958977
0001d0 46 f3 10 3d 89 a7 73 3b f2 28 90 ba 64 8c 9a bd
       0.035388254 0.0037178716 -0.0010998531 -0.07546309
0001e0 88 76 28 bd f9 50 45 bd 1e 0c 3e 3d 59 6a 5d 3e
       -0.041128665 -0.048172925 0.046398275 0.216226
0001f0 35 86 e6 3d a3 ef 8d 3d 61 3e b7 bd 93 e1 7c 3d
       0.11256067 0.06930473 -0.08947445 0.06173856
000200 13 74 c1 3e 77 35 0a 3e 01 96 67 3f 8c 90 9c 3f
       0.3778387 0.13496958 0.9046326 1.2231612
000210 d3 0d 7b 3f c7 39 b1 3c 2b 3b 87 3e 18 87 f8 3d
       0.9806797 0.021633996 0.2641233 0.12135142
000220 df 08 04 3d 1d 94 49 3e 60 22 af 3d cd 2e 71 3e
       0.032235023 0.19685407 0.085514784 0.2355301
000230 7d 9d ce bd 33 05 3e 3d 15 21 e3 3c 3e 17 97 3e
       -0.10088632 0.046391677 0.027725736 0.2950992
000240 0d 8d e6 3e 53 d8 52 3d 59 8c 7a 3e 58 6f 96 3e
       0.45029488 0.051475834 0.24467601 0.29381824
000250 3c 10 a5 3d d4 b6 85 3e d8 d6 43 bd 31 fe b7 3e
       0.08059737 0.2611605 -0.047812313 0.3593612
000260 14 6e 5c bc 09 ad ef 3b 4a d7 c6 bd 2d 1b a0 3d
       -0.013453979 0.0073143286 -0.09709032 0.07817683
000270 7d ec ea bd 5b 0d f6 3e e1 af 56 3c c7 4b 96 bd
       -0.11470888 0.48057064 0.013103456 -0.07338672
000280 9d b5 4e 3f c8 bc df 3d 0f 2b 88 bd e4 bb 25 3f
       0.8074587 0.10924679 -0.06648838 0.64739823
000290 09 0f b7 3e 82 a9 d3 3e 51 9f c6 3e 84 0f e0 bd
       0.35753658 0.41340262 0.38793424 -0.10940459
0002a0 b1 89 2c bd 4c f5 c2 3e 04 58 b5 bd 82 4d af bd
       -0.0421235 0.38077772 -0.08854678 -0.08559705
0002b0 a6 f8 33 bd 87 61 ab bc b3 08 4d bd 29 c4 5d 3d
       -0.0439383 -0.020920528 -0.050057124 0.05414215
0002c0 60 cd 64 bc 49 89 b3 3d b4 39 a1 bb 6b 80 58 be
       -0.013964981 0.087664194 -0.004920209 -0.21142738
0002d0 42 de 97 bd c1 61 17 3f 26 66 a2 3e 56 87 cf 3d
       -0.07415439 0.59133536 0.31718558 0.10133235
0002e0 d3 7e c7 bd b6 ed 93 bd a0 ae c4 3d 70 17 e7 3c
       -0.09740987 -0.07223074 0.096036196 0.028209418
0002f0 cb 12 ad 3c 68 0e 94 bd fa 62 80 3e 98 44 ec bd
       0.021127125 -0.0722931 0.25075513 -0.11536521
000300 f8 1d 93 bd 98 9a ad bd 26 64 a4 bd 6e 97 fb 3e
       -0.071834505 -0.08476752 -0.08026914 0.4913897
000310 1b 6f a9 3d 93 2f 1c 3f fc 0f 5f 3f 6a 50 29 3f
       0.08273145 0.6101009 0.87133765 0.6613833
000320 b3 b8 35 3f aa 34 54 3e 11 66 43 3f 91 99 07 3e
       0.70984954 0.20723215 0.76327616 0.13242175
000330 3d 97 f8 3e 68 d6 21 3c ce dd 04 3f d5 0a 8f 3d
       0.48552886 0.009877779 0.5190095 0.06984488
000340 ec 10 a0 bd d2 eb 4f bb 7b 99 e7 3e 7e 9d 12 3f
       -0.078157276 -0.0031726253 0.45234284 0.57271564
000350 cd 18 45 3e cf 63 6f 3e 80 90 60 3e f8 9e dd bc
       0.19247742 0.23377918 0.21930122 -0.027053341
000360 a8 98 e2 3d 68 42 5a 3c cd ed a3 3e 6b 1b b7 3d
       0.11064273 0.013321497 0.32017365 0.089407764
000370 65 de 72 3d 07 30 96 bd ec b8 8b 3d f2 28 72 bd
       0.059294123 -0.07333379 0.068223804 -0.05912108
000380 3a 18 2d 3f c8 cf a8 3e 9a 02 7f 3d 91 19 32 3f
       0.6761509 0.32971025 0.06225834 0.6957026
000390 7b b6 00 3e 9c 71 ac 3e ba a0 43 3f cc e4 9a 3e
       0.12569611 0.33680427 0.76417124 0.30252683
0003a0 cf 31 18 3f 4c 72 ef 3d 4b c1 a7 3d df c7 2e bd
       0.59451 0.11691722 0.081911646 -0.04267108
0003b0 cb ae d4 3e 20 41 83 3d aa 52 51 3d be 6a ac 3d
       0.41539606 0.06408906 0.051104225 0.08418797
0003c0 60 e0 80 3e 6e 29 12 3e f4 89 9a bc 55 5e e6 3c
       0.25171185 0.14273617 -0.01886461 0.028121153
0003d0 31 a0 fa bd 8e 0e 50 3e 3c 0d ed 3d 6d dd b8 bd
       -0.12237585 0.20318052 0.1157479 -0.090266086
0003e0 e0 95 47 3f 53 c4 91 3e da 8b 0f 3d 33 d1 6e 3d
       0.77963066 0.28470096 0.035045482 0.058304977
0003f0 e9 64 e7 3c f5 6f 15 bc 35 cd 0f bc c3 3c 9e 3d
       0.02824636 -0.009120931 -0.0087769525 0.07726433
