model/RegAlloc/ggnn_drl/rllib_split_model/src/select_task_model_inference/model.onnx (onnx, 45219 bytes, 6 tensors)

fc1.bias f4 [64]
0	0x3e8e9066	0.27844542
1	0xbd4af547	-0.04955032
2	0x3e2a1f5f	0.1661353
3	0x3ba4acd8	0.0050254874
4	0xbd8b8498	-0.068123996
5	0xbb9ca6da	-0.0047806324
6	0x3eb32ac5	0.34993568
7	0xbd07995d	-0.033105243
8	0x3e7a25a7	0.24428426
9	0x3e8649a4	0.26228058
10	0x3e6896b2	0.22713736
11	0x3e375630	0.17903972
12	0xbd917593	-0.07102504
13	0x3dcb1d6c	0.09917721
14	0xbdb6b163	-0.089205526
15	0x3e626b5f	0.22111271
16	0xbd6a3a7d	-0.057184685
17	0xbda6292f	-0.08113324
18	0x3e419307	0.18903743
19	0x3e71db3e	0.2361879
20	0xbd48dc10	-0.049037993
21	0x3e859c88	0.26095986
22	0x3e8452c1	0.25844386
23	0x3e6a068f	0.22854064
24	0xbca44160	-0.020050704
25	0x3e6cb1ec	0.23114747
26	0x3e7fe22f	0.24988626
27	0xbd6b4fea	-0.05744926
28	0x3e6ab813	0.22921781
29	0xbdc4a795	-0.09602276
30	0x3d31b818	0.043388456
31	0xbdc8fd50	-0.098139405
32	0xbda7e9fa	-0.08198924
33	0x3e8432b1	0.25819924
34	0x3e6fab08	0.23405087
35	0x3cb44cf5	0.022009352
36	0x3e788718	0.24270284
37	0x3e268e96	0.1626533
38	0xbd704557	-0.058659878
39	0x3e8b5774	0.2721516
40	0xbbe12b20	-0.006871596
41	0x3e77b022	0.24188283
42	0x3e606e51	0.21917082
43	0xbcf4f207	-0.029900564
44	0xbc9c6e0a	-0.01909544
45	0xbcb3761a	-0.021906901
46	0xbd21f6dd	-0.039542068
47	0x3e69b512	0.22822979
48	0xbd717ad0	-0.058955014
49	0xbcb5b913	-0.022182977
50	0x3e90ff0e	0.2831959
51	0xbd9235c5	-0.07139162
52	0x3e6bf381	0.23042108
53	0xbd20da30	-0.03927058
54	0x3e8411c4	0.25794804
55	0x3e1f99a7	0.15585957
56	0xbdcb847a	-0.09937377
57	0xbd4b53f0	-0.049640596
58	0xbdb99c70	-0.09063041
59	0xbda82338	-0.082098424
60	0x3e6bd5b7	0.23030744
61	0xbdc4eb08	-0.09615141
62	0x3e28fb5d	0.16502137
63	0x3e31b9d7	0.17356049

fc1.weight f4 [64, 100]
0	0xbe34cc88	-0.17656147
1	0xbc92de42	-0.017928246
2	0x3ba3385c	0.004981084
3	0xbca4a581	-0.02009845
4	0x3e54e963	0.20792155
5	0x3d37cc1c	0.04487239
6	0x3b9d3ac8	0.004798267
7	0xbd8011e5	-0.06253413
8	0xbcb8ed86	-0.022574198
9	0xbd90323c	-0.070408314
10	0x3df70736	0.12061922
11	0xbdb086b6	-0.08619444
12	0x3d8352f2	0.06412305
13	0x3cef1d6f	0.02918884
14	0xbe1ebbd4	-0.15501338
15	0x3c92d842	0.017925385
16	0xbdad9c38	-0.08477062
17	0xbe20affd	-0.15692134
18	0x3dc7a531	0.09748305
19	0x3e31a6e4	0.1734882
20	0x3c855055	0.016273657
21	0xbd710718	-0.058844656
22	0xbde7ca10	-0.11317837
23	0x3e3d765f	0.18502186
24	0xbcfeec04	-0.0311184
25	0x3da430da	0.0801713
26	0x3d1ecb60	0.038768172
27	0x3e274356	0.1633428
28	0xbda3e0ab	-0.080018364
29	0xbd90f3d4	-0.070777565
30	0xbd2de752	-0.042456932
31	0xbdf72c32	-0.120689765
32	0xbd0a324c	-0.033739373
33	0x3c2c85b4	0.010529924
34	0xbd34bf6c	-0.044127867
35	0x3de50e06	0.111843154
36	0xbe454de2	-0.19267991
37	0x3d63756a	0.055531897
38	0x3d9235ea	0.071391895
39	0x3da2152a	0.07914193
40	0xbcb5de5f	-0.022200761
41	0x3cce58cf	0.025188832
42	0xbe144bdf	-0.14482068
43	0xb88737f8	-6.4477266e-05
44	0x3d18efab	0.03733794
45	0x3d8e9844	0.06962636
46	0x3c217b4f	0.009856059
47	0xbcebef48	-0.028800622
48	0x3e44cac7	0.19217978
49	0x3e0c3ad2	0.13694313
50	0xbe17979e	-0.14803931
51	0xbbdd30cd	-0.0067502023
52	0x3e536d40	0.20647144
53	0x3c883cad	0.016630495
54	0xbcf757b8	-0.030193195
55	0xbd452a57	-0.04813608
56	0x3c5da14b	0.013527225
57	0xbd4a14f5	-0.049336392
58	0x3cdbac41	0.026815536
59	0x3e0fe8de	0.14053676
60	0x3e141b17	0.14463459
61	0x3cd8cc4e	0.026464608
62	0x3c1ead43	0.0096848635
63	0xbc4752b7	-0.012165717
64	0x3d885ada	0.066579536
65	0x3de13c54	0.10997835
66	0xbd798f88	-0.060927898
67	0x3b762840	0.0037560612
68	0x3b6814b9	0.0035412742
69	0x3e069568	0.13142931
70	0x3d89fdec	0.06737885
71	0xbdd53ece	-0.1041237
72	0xbe0991a9	-0.13434471
73	0xbe0224bb	-0.12709324
74	0x3e07fccd	0.1328003
75	0xbe1177c1	-0.14205839
76	0xbe1e7599	-0.15474547
77	0xbe14f729	-0.14547409
78	0xbdf83e88	-0.12121302
79	0xbd13e0af	-0.036102947
80	0xbcb59b6c	-0.022168837
81	0x3d146453	0.03622849
82	0xbddd48b5	-0.108048834
83	0xbcacf251	-0.02111164
84	0x3d7878b0	0.06066197
85	0x3e48fa79	0.19626798
86	0x3d3e43cc	0.046451375
87	0xbdab153d	-0.0835366
88	0x3d802044	0.06256154
89	0x3dd9b9d0	0.10631144
90	0xbde57a0b	-0.112049185
91	0x3e01af43	0.12664513
92	0x3d1c7661	0.038198832
93	0x3d6b88a4	0.057503358
94	0xbc7c46a0	-0.015397698
95	0x3da61a24	0.08110455
96	0xbe410100	-0.18848038
97	0xbd5383e8	-0.051639467
98	0xbe0165b6	-0.12636456
99	0x3dc77f57	0.09741085
100	0xbdb34377	-0.08753102
101	0x3d6bb983	0.057549965
102	0xbd533ed0	-0.051573575
103	0xbd87d1c3	-0.06631806
104	0xbda6998f	-0.08134758
105	0xbc3de640	-0.01159054
106	0x3db08cb3	0.08620586
107	0xbcc855da	-0.024455
108	0x3c969acd	0.018384362
109	0xbda011e8	-0.07815915
110	0x3d47b250	0.048754036
111	0x3d9ad787	0.0756064
112	0x3d638a07	0.055551555
113	0x3db07cf7	0.08617585
114	0xbd797b3d	-0.060908545
115	0x3dc44dbd	0.0958514
116	0xbd53830a	-0.05163864
117	0x3d529313	0.051409792
118	0x3d80db2a	0.06291802
119	0x3db88fca	0.090118006
120	0x3d865298	0.06558722
121	0x3c108a0d	0.008821976
122	0xbd8bd30b	-0.068273626
123	0xbdc6e00d	-0.09710703
124	0x3dc2b1c8	0.09506565
125	0x3cd9323a	0.026513208
126	0x3c9df420	0.019281447
127	0xba9566cd	-0.0011398435
128	0xbba89967	-0.00514524
129	0x3db8cd3d	0.09023521
130	0x3c983e00	0.018584251
131	0x3d9abd72	0.07555665
132	0xbd8e523f	-0.06949281
133	0xbc384a80	-0.011248231
134	0xbd548b5d	-0.05189072
135	0x3daa4307	0.08313566
136	0xbc5fea4d	-0.0136667015
137	0xbda67132	-0.08127059
138	0x3dc2560f	0.094890706
139	0xbd69fa8d	-0.05712371
140	0x3d527457	0.05138048
141	0x3d673c37	0.05645391
142	0x3ce4dd53	0.027937567
143	0x3da9f1ea	0.082980946
144	0xbcbc8d27	-0.023016525
145	0x3d4fd7ba	0.050742842
146	0xbd2eb34a	-0.042651452
147	0xbdad2db5	-0.084559835
148	0x3d9fb89f	0.077988856
149	0xb915fccd	-0.00014303923
150	0xbac47b9a	-0.0014990449
151	0xbd70a837	-0.058754172
152	0x3d8800d0	0.0664078
153	0xbd8ebe80	-0.06969929
154	0xbc320e00	-0.010867596
155	0x3d84e01d	0.06488059
156	0x3d517693	0.05113847
157	0xbdc215c8	-0.09476811
158	0x3cadba27	0.021206928
159	0xbdc112fd	-0.0942745
160	0xbdc427ef	-0.09577929
161	0x3d4c51ed	0.049882818
162	0xbdc5ed22	-0.0966437
163	0xbcbbfec0	-0.022948623
164	0x3da84745	0.082167186
165	0x3d20f56d	0.039296556
166	0x3d285f8d	0.04110675
167	0x3d7b0387	0.06128266
168	0x3d1d675a	0.03842864
169	0x3dcc9837	0.0998997
170	0xbcf4d680	-0.029887438
171	0x3d3a08ed	0.04541867
172	0x3d8ca810	0.06867993
173	0xbd909413	-0.07059493
174	0x3c8f6f0d	0.017509008
175	0x3c59d127	0.013294495
176	0x3cfde3ed	0.030992473
177	0xbd0115f3	-0.031515073
178	0x3d7521ed	0.059846807
179	0x3b81634d	0.003948605
180	0x3d0be6da	0.034155704
181	0x3d1ac13d	0.037781943
182	0x3d8780ba	0.066163495
183	0xbd96fca2	-0.07372405
184	0xbc43594d	-0.011923146
185	0xbdb4664b	-0.08808573
186	0xbdadc260	-0.0848434
187	0x3d70b8c3	0.058769953
188	0xbd89009d	-0.0668957
189	0x3d4287b0	0.047492683
190	0xbc9b649a	-0.018968869
191	0xbd5db72a	-0.054129757
192	0x3dbbce75	0.09170238
193	0x3dc5bc67	0.096550755
194	0xbd6a66f0	-0.057227075
195	0x3c9e569a	0.019328404
196	0x3aa0b067	0.0012259603
197	0xbd5403d3	-0.05176146
198	0x3dc07047	0.09396415
199	0xbb88e167	-0.0041772607
200	0xbd0c5263	-0.034258258
201	0xbdd6a989	-0.10481555
202	0x3ddf829c	0.10913584
203	0x3b542b72	0.0032374528
204	0x3cbdaa69	0.023152547
205	0x3d9e5531	0.07731093
206	0x3d36ad0f	0.044598635
207	0x3b8eb89d	0.0043555037
208	0xbe49cb61	-0.19706489
209	0xbdfe47c4	-0.12416032
210	0x3d121c4f	0.03567153
211	0xbdaeb96a	-0.08531459
212	0x3d8f60b9	0.0700087
213	0x3e4d7892	0.20065525
214	0x3d46bb9f	0.048518773
215	0xbd2ea170	-0.042634428
216	0x3e243767	0.1603676
217	0x3d8b482c	0.06800875
218	0x3d4a990d	0.049462367
219	0x3df27d62	0.11840321
220	0xbdefa8a0	-0.117020845
221	0xbe2b344b	-0.16719167
222	0x3e1fa3ca	0.15589824
223	0xbe08af4c	-0.1334812
224	0xbd85d09e	-0.06533931
225	0xbe0bd38b	-0.13654916
226	0x3e44a9bf	0.19205378
227	0xbdb469b4	-0.08809224
228	0x3d5df12a	0.05418507
229	0x3bc06202	0.0058710584
230	0xbe20a6c9	-0.15688623
231	0xbd04e705	-0.03244688
232	0x3db9df2e	0.09075771
233	0x3e5f22fd	0.2179069
234	0x3c6bb6cb	0.014386843
235	0x3e0ddaeb	0.13853042
236	0xbd416085	-0.04721119
237	0x3d58aaa4	0.05289711
238	0x3dffd720	0.12492204
239	0x3a23390c	0.0006226457
240	0x3e1af5ba	0.151328
241	0x3e10f057	0.14154182
242	0x3e1dbc41	0.15403844
243	0xbd2021aa	-0.039094605
244	0x3e08d88e	0.13363859
245	0x3c90d113	0.01767782
246	0xbdb7e45f	-0.08979105
247	0x3dc5d615	0.096599735
248	0xbcd26917	-0.025684876
249	0x3dd7fff4	0.10546866
250	0xbd8c6cee	-0.06856714
251	0xbe29fb06	-0.16599664
252	0xbd9f5838	-0.07780498
253	0xbd81ead1	-0.06343616
254	0xbd844954	-0.06459299
255	0x3d41258d	0.04715495

fc2.bias f4 [64]
0	0x3d240a36	0.0400488
1	0xbc002940	-0.007822335
2	0x3e5b8f65	0.2144142
3	0x3d9055b2	0.07047595
4	0x3cda8900	0.026676655
5	0x3e850c35	0.25985876
6	0xbddcf9a0	-0.107898
7	0x3e0a6c78	0.1351794
8	0xbcaca287	-0.021073593
9	0x3c9ca640	0.019122243
10	0x3d4beab7	0.04978439
11	0xbe10d476	-0.14143547
12	0x3d955b35	0.07292787
13	0xbd7a39b6	-0.061090194
14	0x3ca82c17	0.020528836
15	0xbcec2508	-0.028826252
16	0xbd9052d7	-0.070470504
17	0xbad105a4	-0.0015947116
18	0x3c9af4b0	0.018915504
19	0x3e17df5a	0.14831296
20	0xbc108a9d	-0.0088221105
21	0xbd473634	-0.048635677
22	0x3cb05e3f	0.021529315
23	0xbc4021c0	-0.011726797
24	0xbd8ac8b2	-0.06776561
25	0xbdd6d848	-0.10490471
26	0x3dbdfb12	0.092764035
27	0x3e286101	0.16443254
28	0x3e3e6e58	0.1859678
29	0x3e3bc367	0.18336259
30	0x3e1a0de6	0.15044364
31	0xbc673ca0	-0.014113575
32	0xbd94c686	-0.07264428
33	0x3e35698e	0.17716047
34	0xbdf479e0	-0.11937308
35	0x3e0e5ebb	0.13903324
36	0xbcf56648	-0.029955998
37	0x3ce6e2da	0.028184343
38	0xbda6b08a	-0.08139141
39	0x3da6e899	0.08149833
40	0x3e6f11f6	0.23346695
41	0xbd67c118	-0.056580633
42	0x3e52743f	0.20552157
43	0x3dc15515	0.09440056
44	0x3e4e812e	0.20166466
45	0x3e029a2f	0.12754129
46	0xbb8bc178	-0.0042650066
47	0x3d499b2a	0.04922024
48	0xbd250eb0	-0.04029721
49	0x3df2c5ed	0.118541576
50	0x3e121fef	0.14269994
51	0xbcc86bf8	-0.024465546
52	0xbcbc8748	-0.023013726
53	0xbdbb6f92	-0.0915214
54	0xbd932f1e	-0.07186721
55	0x3dad60e0	0.08465743
56	0xbc9098a0	-0.017650902
57	0xbd96d6c2	-0.073651806
58	0xbdd1958e	-0.102336034
59	0x3e614093	0.2199729
60	0xbdd06b80	-0.10176754
61	0x3e1a47e6	0.1506649
62	0xbcf127a8	-0.029437855
63	0xbd12af88	-0.03581193

fc2.weight f4 [64, 64]
0	0x3d58a684	0.052893177
1	0xbd49df1c	-0.04928504
2	0xbcb94be0	-0.022619188
3	0xbd8046e5	-0.06263522
4	0xbd14317c	-0.036180004
5	0x3cd60dcc	0.026129626
6	0x3cf5100c	0.029914878
7	0xbd45a348	-0.04825142
8	0xbcbd5cf7	-0.023115618
9	0x3d4ad7cf	0.049522217
10	0x3d828215	0.063724674
11	0x3c80529c	0.015664391
12	0xbd891c4e	-0.06694852
13	0xbdb77732	-0.089582816
14	0x3d82eac0	0.06392431
15	0xbd77640a	-0.06039814
16	0x3df5a1fc	0.11993787
17	0xbdebe7d2	-0.115188256
18	0x3d85eaf2	0.06538953
19	0xbd6bb24f	-0.057543095
20	0x3dbf9d0a	0.09356125
21	0xbe0038bc	-0.12521642
22	0xbd3d71cd	-0.046251107
23	0xbdf25170	-0.11831939
24	0x3d8badaa	0.06820233
25	0xbdbbb944	-0.09166196
26	0xbd74299f	-0.059610005
27	0x3d52c76c	0.051459715
28	0xbcc32b31	-0.023824306
29	0xbdd602b8	-0.10449737
30	0x3dc6cd3d	0.09707115
31	0x3df2e5a4	0.11860207
32	0xbd905370	-0.070471644
33	0x3db1a6f7	0.08674424
34	0xbd8eea0a	-0.06978233
35	0x3d43610c	0.047699973
36	0x3cb83a41	0.022488715
37	0xbe023127	-0.12714063
38	0xbd92abb4	-0.07161656
39	0xbd407936	-0.046990596
40	0x3d3dfbd2	0.046382733
41	0x3d5b8255	0.05359109
42	0xbd72a1ef	-0.059236463
43	0x3cb6d180	0.022316694
44	0xbd8ef16a	-0.0697964
45	0xbd8aa27c	-0.06769273
46	0xbddf72f4	-0.109105974
47	0xbdc622ce	-0.09674607
48	0xbd58ecb4	-0.052960113
49	0xbdd289f0	-0.10280216
50	0xbd506592	-0.050878115
51	0x3c73de80	0.014884591
52	0x3d5f6a2d	0.054544616
53	0x3d1e33b8	0.03862354
54	0xbe15d2dc	-0.14631218
55	0xbe1035fc	-0.14083093
56	0x3cb22400	0.021745682
57	0xbc918ae0	-0.017766416
58	0x3d3e92b0	0.04652661
59	0xbc71c9e0	-0.014757603
60	0xbdb7244e	-0.089424714
61	0x3d51b6a4	0.05119957
62	0xbe351eef	-0.17687581
63	0x3d5429b2	0.051797576
64	0xbd9bce3c	-0.076076955
65	0x3d98bbdc	0.07457706
66	0xbd957308	-0.07297331
67	0xbd4ea09c	-0.050446138
68	0xbc3c3430	-0.011487052
69	0x3cb898b8	0.02253376
70	0x3ddfb2a0	0.10922742
71	0x3d8209d4	0.06349531
72	0xbd363b7c	-0.044490322
73	0xbd1594cc	-0.036518857
74	0xbc1fa120	-0.009743005
75	0x3def7900	0.11693001
76	0x3dc059c0	0.093921185
77	0x3d1f6f2c	0.03892438
78	0xbd693900	-0.056939125
79	0xbd2e2f04	-0.042525306
80	0xbdd90984	-0.10597518
81	0xbd200218	-0.039064497
82	0xbca35718	-0.01993899
83	0x3dc7be0c	0.097530454
84	0x3dfea41e	0.124336466
85	0xbdb0d8d6	-0.08635108
86	0xbc345b90	-0.011008158
87	0x3b255e00	0.002523303
88	0x3c84f310	0.016229182
89	0x3d3d3340	0.046191454
90	0xbd85e99e	-0.065386996
91	0x3cac76a8	0.021052673
92	0x3d5d17e4	0.053977862
93	0xbdbcd85e	-0.09220956
94	0x3bf042c0	0.007332176
95	0x3dd0e0e8	0.101991475
96	0x3da71e58	0.081600845
97	0xbd7e2474	-0.062046483
98	0xbd17a654	-0.037023857
99	0x3cc49350	0.023996025
100	0x3c7c6fc0	0.015407503
101	0x3cc248c0	0.02371633
102	0xbdbaaf80	-0.09115505
103	0xbbad4b60	-0.0052885264
104	0xbce4b710	-0.027919322
105	0xbce02030	-0.027359098
106	0x3c22dc90	0.0099402815
107	0x3de90f3a	0.11379857
108	0x3ca23868	0.019802287
109	0xbdea7c70	-0.11449516
110	0xbc9152f8	-0.017739758
111	0xbc3e22f0	-0.011605009
112	0x3c3c3ea0	0.01148954
113	0x3d2d5f10	0.042326987
114	0x3d5416ec	0.051779673
115	0xbddb148c	-0.106972784
116	0xbd798820	-0.060920835
117	0x3c162bf0	0.009165749
118	0x3df34bc4	0.118796855
119	0x3b7f06c0	0.0038913935
120	0x3da55d72	0.08074464
121	0x3d6b4d14	0.057446554
122	0x3d020080	0.031738758
123	0x3d446770	0.04795021
124	0xbd95dd0a	-0.073175505
125	0x3d2bf4a0	0.04198134
126	0x3cfa6c88	0.03056933
127	0x3c07a890	0.0082799345
128	0x3d2174af	0.03941792
129	0xbdcb17cc	-0.09916648
130	0x3d116caf	0.03550404
131	0xbdede3f8	-0.11615747
132	0x3d8dccbe	0.06923817
133	0x3db5a5f8	0.08869547
134	0x3e00a671	0.12563492
135	0x3c18c910	0.009325281
136	0x3e8afda9	0.27146652
137	0x3e3abf68	0.18237078
138	0x3e4a7df2	0.19774607
139	0x3e347c13	0.17625456
140	0x3d2feb5c	0.042949066
141	0xbd34e2bf	-0.044161554
142	0x3cefe820	0.02928549
143	0x3e352057	0.17688118
144	0xbdffca1e	-0.12489723
145	0xbd5579f0	-0.05211824
146	0x3e8205a3	0.25394925
147	0x3d3ff732	0.046866603
148	0x3c9ef7f0	0.019405335
149	0x3d132bac	0.03593032
150	0x3dc08af7	0.094015054
151	0x3e0c9a14	0.13730651
152	0x3debc39a	0.115119174
153	0x3e6af32b	0.22944324
154	0x3e508c45	0.20366009
155	0xbca88cd0	-0.020574957
156	0x3e60aacc	0.21940154
157	0x3cbbcd90	0.022925168
158	0x3d94b9aa	0.07261975
159	0x3db69b1c	0.089163035
160	0x3d0c169c	0.03420125
161	0x3d8cc1c8	0.06872898
162	0x3d77304c	0.060348794
163	0xbdae1d9a	-0.0850174
164	0x3e1c38fc	0.15256113
165	0x3cbcc783	0.023044353
166	0xbd1402cc	-0.03613548
167	0x3e4d24c3	0.20033555
168	0x3c26dfbb	0.010185177
169	0x3e36e2b8	0.17859924
170	0x3d9e74c4	0.07737115
171	0x3cd309c8	0.0257615
172	0x3e01c2df	0.12671994
173	0x3d94e614	0.072704464
174	0xbd002b3c	-0.03129123
175	0x3e75baa3	0.23996978
176	0xbbce7320	-0.006300345
177	0x3d8f6f7e	0.07003687
178	0x3dffd599	0.124919124
179	0x3cad6688	0.021167055
180	0x3e202317	0.15638386
181	0xbd544084	-0.05181934
182	0x3e2b6d08	0.16740811
183	0x3dc11c3a	0.09429212
184	0x3d455504	0.04817678
185	0x3ddbefa4	0.10739067
186	0xbc1e6f50	-0.009670094
187	0x3d8f3cca	0.069940165
188	0x3e58ec48	0.21183884
189	0xbd165be8	-0.036708742
190	0x3e149628	0.14510405
191	0xbca61294	-0.02027253
192	0x3dd875de	0.105693564
193	0x3d860746	0.06544356
194	0xbc5104f0	-0.012757525
195	0xbc05f2aa	-0.008175531
196	0xbd5bf7c4	-0.053703085
197	0x3db35004	0.08755496
198	0xbdb9507c	-0.09048554
199	0x3da8ef44	0.08248761
200	0xbe3456de	-0.17611262
201	0xbdef1168	-0.11673242
202	0x3d8831e6	0.06650142
203	0x3bdb2ea1	0.006688908
204	0x3daf124e	0.08548413
205	0xbe0d8a02	-0.13822177
206	0xbd784fbc	-0.060622916
207	0xbdb29897	-0.087205105
208	0xbd5e55b4	-0.05428095
209	0x3d8fe118	0.07025355
210	0xbd6f957a	-0.05849216
211	0xbe11854a	-0.14211002
212	0xbbf065e0	-0.007336363
213	0x3d5ef73d	0.054435004
214	0xbc9f4013	-0.019439733
215	0xbe26d7f4	-0.16293317
216	0x3c600130	0.013672158
217	0x3d43066b	0.047613543
218	0xbe152c0b	-0.14567582
219	0xbd4c54a0	-0.049885392
220	0xbdcdbfec	-0.10046372
221	0xbbbbdc40	-0.005733043
222	0x3d2715a4	0.040792122
223	0xbbd89ac0	-0.0066102445
224	0xbbd3dda0	-0.0064656287
225	0x3d1a9bc2	0.0377462
226	0x3d6e1a05	0.058130283
227	0x3d87d81a	0.06633015
228	0xbdb9f974	-0.090807825
229	0xbd267457	-0.040638294
230	0x3d0f2960	0.034951568
231	0x3cc640e9	0.024200873
232	0x3e00f60c	0.1259386
233	0xbc20cefd	-0.009814975
234	0xbdf39433	-0.11893501
235	0x3d3c1314	0.04591663
236	0xbdd79c81	-0.105278976
237	0xbdc5b636	-0.096538946
238	0xbdeeef2e	-0.11666714
239	0xbd7bac68	-0.061443716
240	0xbdd62b36	-0.104574606
241	0x3c361150	0.011112526
242	0xbe0c7dff	-0.13719939
243	0x3d8f93c6	0.070106074
244	0xbdf0fcd8	-0.11766976
245	0x3d89dd26	0.06731634
246	0x3b7efe83	0.0038909025
247	0x3d80ebec	0.062949985
248	0x3d265de8	0.0406169
249	0xbdd827fc	-0.105545014
250	0x3cf8b8a0	0.030361474
251	0x3d0c23ac	0.034213707
252	0x3bfbc7bf	0.0076837237
253	0x3dfa8a34	0.122333914
254	0xbce1f55e	-0.02758282
255	0xbd0ef04f	-0.034897145

fc3.bias f4 [2]
0	0xbe47c8e6	-0.1951023
1	0x3d99c241	0.07507754

fc3.weight f4 [2, 68]
0	0x3dc5edbd	0.096644856
1	0x3de4034c	0.11133441
2	0xbe489e82	-0.19591716
3	0x3d952627	0.072826676
4	0x3dc8b105	0.09799389
5	0xbf00b7cb	-0.50280446
6	0x3d5fedb0	0.054670036
7	0xbe772a73	-0.24137287
8	0x3caf38e1	0.021389427
9	0xbdcffe1a	-0.10155888
10	0xbd1bf7b7	-0.038078036
11	0x3ca1babf	0.019742368
12	0xbdb31166	-0.08743553
13	0x3dd3cd9b	0.103419505
14	0x3d0a0685	0.033697624
15	0x3c9227ab	0.01784118
16	0x3d8eb1c0	0.06967497
17	0xbab64018	-0.00139046
18	0x3db47912	0.08812155
19	0xbdb8bc23	-0.09020259
20	0x3d5d0781	0.053962234
21	0xbbd41f7c	-0.00647348
22	0x3da2b8a8	0.07945377
23	0xbcb76814	-0.022388496
24	0xbd2faa55	-0.04288705
25	0x3d6ea70b	0.058264773
26	0xbe484d8a	-0.19560829
27	0xbe8744e1	-0.26419738
28	0xbe8c162d	-0.2736067
29	0xbe76ebe3	-0.24113421
30	0xbe0c78ac	-0.13717908
31	0xbcfc8ea1	-0.03082973
32	0xbdb509c7	-0.088397555
33	0xbe38c809	-0.18045057
34	0xbdd269c2	-0.10274078
35	0xbe3fde6f	-0.18737195
36	0x3ddfa624	0.10920361
37	0x3d38e9ba	0.045144774
38	0xbdc76f47	-0.09738021
39	0x3dc493b0	0.09598482
40	0xbed6eff7	-0.41979954
41	0xbd7d1b93	-0.061793875
42	0xbe56eedd	-0.20989557
43	0xbdf43f31	-0.11926115
44	0xbdf838a7	-0.121201806
45	0xbe616dcf	-0.22014545
46	0x3ad61f38	0.0016336208
47	0x3d1dcddd	0.038526405
48	0x3c550978	0.013002746
49	0xbe3ad0d7	-0.18243729
50	0xbe6306e3	-0.22170596
51	0xbdaebdff	-0.08532333
52	0x3d2debc0	0.042461157
53	0xbcbfa2c5	-0.023393044
54	0x3d18e76a	0.03733007
55	0x3d1e84f0	0.038700998
56	0xbdc03228	-0.093845665
57	0xbc0d06a4	-0.00860754
58	0x3db549e5	0.08851985
59	0xbe8a2b13	-0.26985988
60	0xbdaecc05	-0.085350074
61	0xbe871a66	-0.26387328
62	0xbdb09796	-0.08622663
63	0x3de070ba	0.10959001
64	0xbe3f35c2	-0.1867285
65	0xbe9a8578	-0.30179954
66	0x3d956143	0.07293942
67	0xbc22b392	-0.009930508
68	0xbd807e46	-0.06274085
69	0x3d841aef	0.0645045
70	0x3e08be14	0.13353759
71	0x3d224f92	0.039626665
72	0xbd9254f8	-0.07145113
73	0x3ee4668d	0.4460949
74	0x3de30eb3	0.11086788
75	0x3dfd39fc	0.12364575
76	0x3cb37685	0.0219071
77	0x3d55f72b	0.05223767
78	0xbd34aea2	-0.044111855
79	0xbdb9b220	-0.09067178
80	0xbdd761eb	-0.10516723
81	0x3d0d75c2	0.03453613
82	0xbd1d0057	-0.038330402
83	0xbd381a5f	-0.044947024
84	0xbdd7efb4	-0.105437666
85	0xbb3fcb2f	-0.0029265394
86	0xbdad4205	-0.08459858
87	0x3e7e6b78	0.24845684
88	0x3d5783b2	0.05261583
89	0xbd94347a	-0.072365716
90	0x3d942c78	0.07235044
91	0xbd9beecb	-0.076139055
92	0xbdc7c251	-0.0975386
93	0x3d1ea8dd	0.03873526
94	0x3e52f9ee	0.20603153
95	0x3e0213ad	0.12702818
96	0x3dc2cb35	0.09511415
97	0x3e4e9232	0.20172957
98	0x3e54b66b	0.20772712
99	0x3cac0550	0.020998627
100	0xbd73a97e	-0.059487812
101	0x3e3755f0	0.17903876
102	0x3d9fac4f	0.07796537
103	0x3e4664b8	0.19374359
104	0x3d8e5895	0.069504894
105	0x3ce04d11	0.027380498
106	0x3d8420f7	0.064516
107	0xbbdc0c14	-0.006715307
108	0x3ee05e5d	0.43821993
109	0xbd9be12b	-0.07611307
110	0x3e1cf65e	0.15328357
111	0x3e82e14b	0.2556251
112	0x3e6540c3	0.22387986
113	0x3e57851c	0.21046871
114	0xbc7551d4	-0.014973123
115	0x3d0cbd32	0.03436012
116	0xbdd7201a	-0.1050417
117	0x3e709d63	0.23497538
118	0x3e272a75	0.1632479
119	0xbdc4c874	-0.09608546
120	0x3dc80fbf	0.09768628
121	0x3ce7da0b	0.028302213
122	0x3da13780	0.07871914
123	0xbdac14ef	-0.0840243
124	0x3c8ac30a	0.016938705
125	0xbd216630	-0.039404094
126	0xbdabe878	-0.08393949
127	0x3d4a7b24	0.049433842
128	0xbc081cf9	-0.008307689
129	0x3e68e14a	0.22742191
130	0xbdce9bb9	-0.100882955
131	0xbc9819e2	-0.01856703
132	0x3e0858d7	0.1331514
133	0x3e207501	0.15669633
134	0x3de4afa3	0.111663125
135	0x3d57ca04	0.05268289
