model/RegAlloc/ggnn_drl/rllib_split_model/src/node_split_model_inference/model.onnx (onnx, 99579 bytes, 7 tensors)

126 f4 [66, 64]
000000 19 b0 2e be 3a 1a a9 3d ed 13 22 3e 29 a5 79 3d
       -0.17059363 0.082569554 0.15827914 0.060948525
000010 34 e5 ac bd c6 a5 5d 3c 54 cf 02 bd dc 2c b6 bb
       -0.084421545 0.013528293 -0.031936005 -0.005559547
000020 73 8b 7e be 88 c2 93 3d 8f 36 4c bb ae 94 a4 3d
       -0.24857883 0.07214838 -0.003116045 0.08036171
000030 12 54 bb 3c 25 56 bd 3d b8 0a 12 be 0c a0 8b be
       0.022867236 0.092449464 -0.14261901 -0.27270544
000040 d9 07 8e be 12 22 51 be 91 7e 70 be 51 9d 06 3d
       -0.27740362 -0.20423153 -0.23485781 0.032864872
000050 c8 bb cb 3c d9 37 db 3d d8 ee f5 3d fe 46 88 3d
       0.024869815 0.107040115 0.120084465 0.06654166
000060 56 df 1b 3e 89 bd 05 3c 70 01 dc bd fc 12 93 3d
       0.15221915 0.0081628645 -0.10742462 0.07181355
000070 13 c3 0c be f7 74 8b 3d d7 bf 0e 3e 2d c3 97 bc
       -0.1374629 0.06809419 0.13940369 -0.018525684
000080 dc c3 ac 3d 32 8e 31 3d 23 30 7a bc 20 ef 56 be
       0.08435795 0.0433485 -0.015270266 -0.20989656
000090 df 28 97 3d 4e 57 00 3e 16 f0 97 bc ae 0d f3 3d
       0.073808424 0.12533304 -0.0185471 0.118678436
0000a0 9d c5 9b be f6 ac 69 bd bd f1 f3 3d 9e 9b e2 3c
       -0.30424204 -0.057049714 0.11911342 0.027662095
0000b0 a3 48 34 be 5c da 35 3d 05 e5 f5 3d 39 13 63 be
       -0.17605834 0.044397697 0.12006573 -0.22175302
0000c0 94 c3 82 bd 79 fa bc 3d 7d af 41 be ad fc cf bc
       -0.0638496 0.09227461 -0.189146 -0.02538904
0000d0 85 62 9e 3d 27 4a ab 3d d6 ca 61 bd a2 82 7d be
       0.07733635 0.08363753 -0.05512508 -0.24756864
0000e0 5a 8f 92 3d a4 28 84 be 40 16 04 3e 6f 75 c8 3d
       0.071562484 -0.25812256 0.12899113 0.09788024
0000f0 6f 5a 4f be 37 13 4c 3c 1c c4 67 bc 32 19 a5 3c
       -0.20249341 0.012455753 -0.014145877 0.020153616
000100 18 fe 9a 3d 41 1d 0c 3e 63 00 f9 bd 75 21 5c bd
       0.07567996 0.13683034 -0.12158277 -0.053742845
000110 42 ad 90 bb 28 b9 0e 3e 2d 26 ba bc 38 8b 5e bd
       -0.004415185 0.13937819 -0.022723282 -0.054331988
000120 6d 83 2f 3d d2 cb a4 bc a4 ac ca 3c 16 ae bf bb
       0.042849947 -0.02011672 0.024740525 -0.00584961
000130 e0 8a ec bd b0 de 13 be cd 0a 88 3d 1d 30 fb 3d
       -0.11549926 -0.14440417 0.06642685 0.12265036
000140 d6 ec bc 3d 89 56 69 3d 02 14 20 3d c0 92 51 bd
       0.0922486 0.056967292 0.03908158 -0.051165342
000150 2e b4 bf bd f6 ea 45 3d 05 c3 ac bd 82 46 a4 ba
       -0.093605384 0.04831978 -0.084356345 -0.001253322
000160 59 bc bd 3d cf 87 47 3d 38 f5 0b 3d e3 28 6b bc
       0.0926444 0.0487135 0.034169406 -0.01435301
000170 0b 42 ac 3d 3f 45 db bd d9 14 29 3e d4 fe b7 bd
       0.08411034 -0.10706567 0.16511859 -0.089841515
000180 08 01 6b bc 94 6f 19 be 7b 23 f4 bd d5 18 f9 3d
       -0.014343508 -0.1498397 -0.1192083 0.121629395
000190 33 92 53 bd dd 11 db 3c c6 55 ee bd 83 fd be 3d
       -0.0516531 0.026741916 -0.11637454 0.09325697
0001a0 74 a7 6a bc 21 11 6c bd 02 3d b6 3c b9 a9 3a bd
       -0.0143221505 -0.057633523 0.022245888 -0.045572016
0001b0 20 a4 97 3d 10 a4 77 bd 8d b7 d0 bd fb 24 9f 3d
       0.07404351 -0.060459197 -0.101912595 0.07770725
0001c0 08 25 fb bd 29 2d 62 bd 93 a4 59 3e bc 2f e3 3d
       -0.122629225 -0.05521885 0.21254186 0.11093089
0001d0 8c 45 ed bd 61 68 87 bc d8 07 8d ba 0a 5f 1e 3e
       -0.11585531 -0.016529264 -0.0010759784 0.15465942
0001e0 a2 4b 92 3b a1 21 70 3d 65 cf f7 3c 6f 89 8a bc
       0.0044645825 0.05862582 0.03025026 -0.016911237
0001f0 ff 05 5d 3e 9f 00 db bd e6 b1 80 3d 9b 97 c6 bc
       0.21584319 -0.10693478 0.062839314 -0.024242213
000200 ee 55 2b 3b 5a cf f7 bc 8c 14 79 3d ff 18 a3 3d
       0.0026143747 -0.03025024 0.06081061 0.07963752
000210 f0 26 db 3d 90 b6 60 3b 51 6d 6b bd 21 e0 2a bd
       0.10700786 0.0034288503 -0.0574773 -0.041717652
000220 8e a5 95 3d 13 b8 54 3d 0f 22 93 3d 30 cc a0 bd
       0.07306968 0.05193336 0.071842305 -0.07851446
000230 7f 63 cf 3d b6 30 b9 bd b7 6c 2f 3d 35 bf d5 bd
       0.10126399 -0.09042494 0.042828288 -0.104368605
000240 75 0b c1 bd 88 d0 e4 3b ae e1 d7 bc df c1 61 3d
       -0.094260134 0.0069828667 -0.02635273 0.05511653
000250 29 35 c1 3d 9e 94 a4 3c 2a 13 d2 bc 41 36 9d 3d
       0.094339676 0.020090397 -0.025643904 0.07676364
000260 15 9e a1 3d de 5d 2e 3d d6 f2 71 bc 6c c0 27 bd
       0.0789148 0.042569987 -0.014767369 -0.040954992
000270 a0 ed 08 bc 16 2a bc 3d 23 8c 49 bc 68 75 bf 3d
       -0.008357435 0.09187715 -0.012301478 0.09348565
000280 52 ac e6 3d 5e fa b0 3d c4 81 0d 3d 50 cb b9 bd
       0.11263336 0.08641504 0.034547582 -0.09071982
000290 cd a0 88 3d 7b f3 a5 bd 07 48 da 3d f8 a3 bb 3d
       0.06671295 -0.08103081 0.106582694 0.09162134
0002a0 4c 7c ba bd e0 a4 d0 bc bb 0c b2 bd d2 2b 86 3d
       -0.09105739 -0.025469244 -0.086938344 0.06551327
0002b0 73 96 92 3d 6f 13 02 3d 24 32 d8 bd b5 aa 71 3c
       0.07157602 0.031756815 -0.105564386 0.014750172
0002c0 b3 bb d3 bd 1e 62 a3 3d 75 db b5 bd da e8 91 3d
       -0.10338535 0.07977699 -0.08879749 0.07124491
0002d0 f1 33 8a bd 72 84 d1 3d 6a f9 40 bd 7b 82 ff 3c
       -0.06748188 0.1023034 -0.04711286 0.031190148
0002e0 40 d6 31 3d 53 c3 0f bd 6b 37 27 3d 81 eb 25 bd
       0.043417215 -0.035098385 0.040824335 -0.040507797
0002f0 fb 36 1a bd 54 69 bf bd d8 21 b1 3d 33 ea ef 3d
       -0.03765009 -0.093462616 0.08649033 0.11714592
000300 7f db 0c bd c3 98 ab 3d c8 80 a9 bd 10 53 77 3b
       -0.034389015 0.08378746 -0.08276516 0.0037738718
000310 22 02 f2 bc a3 ba e0 bd 96 a7 a6 3d 6a ae c3 bd
       -0.029542033 -0.10973098 0.08137433 -0.09554751
000320 af ca c5 3d b6 9c c6 3d 0f fa 88 3c f0 c9 c6 bd
       0.096577995 0.09697859 0.0167208 -0.09706485
000330 e8 4e fa bd 5e 5c 8f 3d 05 3d 07 3d 4e 0d ce 3d
       -0.122220814 0.070000395 0.033017177 0.100611314
000340 1a 30 c8 bd e2 13 bb 3c 27 0b 05 3d 53 a0 06 3c
       -0.097748 0.02283663 0.03248134 0.008216935
000350 af 89 55 bd 35 d1 67 bd 7d 18 51 bd 54 2b 63 bd
       -0.05213326 -0.056596 -0.051048744 -0.055461243
000360 22 20 83 3d 10 84 61 bc 43 d8 aa bd d2 c3 e6 3c
       0.06402613 -0.013764396 -0.0834203 0.028169546
000370 4b 57 b8 3d c7 96 d3 bb 24 97 e6 3c 81 d2 62 3c
       0.09001025 -0.006457183 0.028148241 0.013844133
000380 b1 5e bd 3d 90 f6 50 bd 38 17 e2 3d 17 1e 4b bc
       0.092465766 -0.05101639 0.11039585 -0.012397311
000390 c2 70 b4 bc 34 49 8c 3d 4a dc 9f bc c8 7d eb bc
       -0.022026423 0.068499 -0.019514222 -0.0287465
0003a0 44 72 f6 bd 1b cb dc bd 7d 50 7d 3d a2 6d 18 3d
       -0.12033513 -0.10780927 0.061844338 0.03721393
0003b0 9f e6 72 3c 45 a3 59 bc 80 89 58 bd 6c 55 ed bd
       0.014825492 -0.013283555 -0.052865505 -0.115885586
0003c0 66 58 a8 bd f7 98 d0 bd d2 c7 c7 bd 71 70 86 bd
       -0.08219986 -0.10185426 -0.097549096 -0.06564415
0003d0 52 83 89 bd 20 62 74 bd de ab d4 3d ad 9f bd 3d
       -0.067145005 -0.05966389 0.103843436 0.09258971
0003e0 29 33 ee 3d 7c ad da 3d d2 18 81 bd 79 fb 88 bc
       0.11630852 0.10677621 -0.06303562 -0.016721474
0003f0 e1 54 13 bd 46 87 4c 3d ed f6 a8 3d e4 84 e6 bb
       -0.03596962 0.049933694 0.08250222 -0.0070348848

127 f4 [200, 1]
000000 04 5b 77 bb 47 1c 18 bd 18 ab 73 bb ea ee f0 bc
       -0.0037743459 -0.037136342 -0.0037180837 -0.029410798
000010 f7 d1 b8 bd c8 25 f1 bd d0 bc dd bd 36 9c d8 bd
       -0.090244226 -0.11774784 -0.10827029 -0.1057667
000020 7d e3 c9 bc 0e 41 8e bd 36 bc 56 bd 1e 10 05 bd
       -0.024644608 -0.06946002 -0.052425586 -0.032486074
000030 de e8 ba bd e8 1e 8e bd 71 52 8d bc 0b d1 28 be
       -0.09126447 -0.06939489 -0.017251225 -0.16485994
000040 15 96 e7 bc 60 43 f5 bd c0 3e 7e bd e8 50 0c be
       -0.028269807 -0.119757414 -0.06207156 -0.13702738
000050 cd 26 07 bd 31 45 13 be 10 88 44 be c2 d6 8c bd
       -0.032995988 -0.14381863 -0.19192529 -0.06876899
000060 62 59 ad bd 14 ff 39 be e8 df 30 be 30 34 3a be
       -0.08464314 -0.18163711 -0.17272913 -0.1818397
000070 22 30 2a be 19 57 a8 bd f2 e3 b0 bd 92 53 3f be
       -0.16619924 -0.082197376 -0.08637227 -0.18684223
000080 27 a1 43 bd 30 53 c2 bd f6 4e b5 bd 9e 18 5b be
       -0.04776111 -0.09488523 -0.08852951 -0.2139611
000090 38 ef 08 be af 38 4f be cf 62 4c be bd 06 39 be
       -0.13372505 -0.20236467 -0.19959567 -0.18068977
0000a0 62 51 48 be 77 a3 bb bd 42 77 7b be ea 17 12 be
       -0.19562295 -0.09162038 -0.24557212 -0.14266935
0000b0 3f 4d 09 be c1 7b 5a be 6d 9a 96 bd d2 21 2f be
       -0.13408373 -0.21336271 -0.07353673 -0.17102745
0000c0 83 8f 37 be 33 4b 35 be c1 4b 48 be 53 47 3a be
       -0.17925839 -0.17704467 -0.19560148 -0.1819127
0000d0 52 ad 1d be 70 26 24 be b6 3b da bd 9b bb 54 be
       -0.15398148 -0.16030288 -0.1065592 -0.20774691
0000e0 27 9d d3 bd 2c 70 5f be ff 95 c8 bd 16 85 03 be
       -0.10332709 -0.21820134 -0.097942345 -0.12843737
0000f0 38 3a 40 be ab 8a 27 be 1b a9 22 be 53 b4 22 be
       -0.18772209 -0.16361491 -0.15884821 -0.158891
000100 45 c4 c8 bd 9f 24 24 be f3 47 6a be 21 cf 4a be
       -0.098030604 -0.16029595 -0.22879009 -0.19805576
000110 67 b9 51 be 91 82 16 be 50 39 12 be c4 a4 15 be
       -0.20480882 -0.14698245 -0.14279675 -0.14613634
000120 ae e7 0d be 68 45 41 be 13 46 f2 bd 5b 54 5b be
       -0.1385791 -0.18874133 -0.11829772 -0.21418898
000130 8b 40 5f be 34 09 33 be 19 47 c5 bd 87 ac 52 be
       -0.21801965 -0.1748398 -0.096327014 -0.20573626
000140 3f 8b 0d be ba 82 5a be 9f df e8 bd 8f fa de bd
       -0.1382265 -0.2133893 -0.11370777 -0.10887634
000150 29 05 4a be b8 60 5e be 7d f3 68 be 20 0e 2e be
       -0.19728531 -0.21716583 -0.22749133 -0.16997576
000160 7d 08 4d be bf 41 30 be 1b 0e 57 be 63 7e d4 bd
       -0.2002277 -0.1721258 -0.21001475 -0.10375669
000170 41 f0 49 be 93 41 b5 bd c2 b9 d9 bd 62 c2 b4 bd
       -0.19720556 -0.08850398 -0.106311336 -0.08826138
000180 cc 8a 1f be 63 0d 1a be b3 14 2c be ef 34 36 be
       -0.1558029 -0.15044169 -0.16804771 -0.1779363
000190 e1 2c 31 be 48 74 23 be 94 84 1d be 38 d6 e8 bd
       -0.17302276 -0.15962327 -0.15382606 -0.11368984
0001a0 99 30 09 be 26 50 ca bd a6 a9 4f be 26 cd d0 bd
       -0.13397445 -0.09878568 -0.2027956 -0.10195379
0001b0 88 d7 d3 bd 57 39 0a be 31 ea 66 be 79 94 0a be
       -0.10343844 -0.13498436 -0.22550274 -0.135332
0001c0 97 d0 0b be 7b 0b 03 be be 2f 0e be cc 14 46 be
       -0.1365379 -0.12797348 -0.138854 -0.19343871
0001d0 df 4d 17 be 7b 3b 3a be 77 29 c7 bd 9d bf 42 be
       -0.14775799 -0.18186752 -0.09724706 -0.19018407
0001e0 d3 4e ea bd b4 52 fe bd 2c 3e 05 be 1e ae db bd
       -0.11440816 -0.12418118 -0.13011998 -0.107265696
0001f0 d4 88 3a be d6 2b bd bd 9a ed ff bd 61 8a 5e be
       -0.18216258 -0.09236877 -0.12496491 -0.21732475
000200 04 f4 da bd 32 4c 2f be c5 9a ef bd 90 89 db bd
       -0.106910735 -0.1711891 -0.11699442 -0.10719597
000210 9c 9b 37 be 19 d8 4d be d1 aa 65 be 01 32 43 be
       -0.17930454 -0.20101966 -0.22428443 -0.19062044
000220 2f ee 07 be 4b 42 51 be c2 95 26 be 2a 57 2c be
       -0.13274454 -0.20435445 -0.16268066 -0.16830125
000230 4c 94 40 be bd 7e ec bd c7 94 1a be 59 73 ea bd
       -0.18806571 -0.11547611 -0.15095817 -0.11447782
000240 ad 64 0b be 0e 70 26 be 43 ce d0 bd a1 c8 d6 bd
       -0.13612624 -0.16253683 -0.10195591 -0.10487486
000250 de bd 22 be a9 2d 21 be 9f 77 1a be 5c 20 d6 bd
       -0.15892741 -0.15740074 -0.15084694 -0.10455391
000260 d7 10 14 be 89 7c 1d be 60 1b 4e be d4 85 be bd
       -0.14459549 -0.15379538 -0.2012763 -0.093028694
000270 03 33 0a be aa f2 0c be 83 a5 09 be 6b 3e 4e be
       -0.13496022 -0.13764444 -0.13442044 -0.20140998
000280 99 f9 29 be bc 14 4c be 32 64 44 be 5c db 14 be
       -0.1659912 -0.19929785 -0.19178846 -0.14536804
000290 2d f6 c5 bd 0b c9 cc bd 79 dd e3 bd 24 8f ea bd
       -0.09666095 -0.099992834 -0.11126227 -0.11453083
0002a0 6b f9 44 be a0 1e 0c be e1 a4 5c be d1 e6 51 be
       -0.1923577 -0.13683558 -0.21547271 -0.20498206
0002b0 d9 40 33 be 3e ad 32 be ca 17 ee bd 64 d7 54 be
       -0.17505206 -0.17448899 -0.11625631 -0.2078529
0002c0 40 f6 37 be 0e 73 25 be 74 80 20 be 75 5c 02 be
       -0.1796503 -0.16157171 -0.15674001 -0.12730582
0002d0 49 45 dc bd 0d b7 26 be 27 cc 2c be 69 ad c9 bd
       -0.107554026 -0.16280766 -0.16874753 -0.098475285
0002e0 b6 e7 1c be 8c b3 35 be cd 85 39 be 94 66 5b be
       -0.15322766 -0.17744273 -0.18117447 -0.21425849
0002f0 06 8a e2 bd a1 9c cb bd 7f 08 ea bd f0 c1 b8 bd
       -0.11061482 -0.09941984 -0.11427402 -0.09021366
000300 87 7a 10 be ed 36 63 be c2 8a 60 be 7c 2c df bd
       -0.1410924 -0.22188921 -0.21927932 -0.108971566
000310 b4 80 1a be aa a0 63 be 49 51 26 be 1f 1d 0a be
       -0.15088159 -0.22229257 -0.16241945 -0.13487671

fc1.bias f4 [64]
000000 7d fd c6 bd 7b 64 bd bd 8d 1a a2 3d 93 80 10 bd
       -0.09716318 -0.09247681 0.079152204 -0.035278868
000010 80 ef c6 bc 82 be 8e 3e 46 ab f5 bc ce 70 02 bd
       -0.024284124 0.2787972 -0.029988896 -0.03184586
000020 1a 4b ea 3d 57 44 4c 3e f4 97 44 3e b3 a6 3a 3e
       0.11440106 0.19947945 0.1919859 0.18227653
000030 10 66 4d bd 14 85 33 3e 19 58 31 3e 2a 6d ae bc
       -0.050146163 0.17531234 0.17318763 -0.021292288
000040 f5 bd c8 bd 57 7a 96 bd d7 9f 48 bd b6 3c 1f 3e
       -0.098018564 -0.07347553 -0.04898056 0.15550503
000050 72 0f e3 3d 2c c0 6e 3e dd 09 13 bd ba 10 4b bd
       0.1108693 0.23315495 -0.03589808 -0.0495765
000060 ff 11 aa bd 92 96 78 3e 6b de 2b 3e 35 b6 62 3e
       -0.08304214 0.24276188 0.16784064 0.22139819
000070 fa d0 a7 bd 55 32 40 3e 5c 71 b3 bc 87 89 74 bd
       -0.08194156 0.187692 -0.02190464 -0.05970147
000080 bb a4 d7 bc 30 d6 97 bd 68 15 3f 3d cb 2a 3c 3e
       -0.026323667 -0.074139 0.046651274 0.18375699
000090 03 80 da bc 9a aa 72 bd 84 db 26 3e 50 74 71 bd
       -0.026672369 -0.05924473 0.16294676 -0.058948815
0000a0 29 7f 19 3e b0 82 2f bd 5d bc de bc 2a 9f 58 bd
       0.14989914 -0.042849243 -0.027189428 -0.052886166
0000b0 77 00 0e 3c f6 8e dd 3d 83 ce 4d bd 4d 0e 23 3e
       0.008667103 0.10818283 -0.050245773 0.15923424
0000c0 b1 84 66 3e 2f b2 2f bc 72 ad 45 3e e0 74 a7 bd
       0.22511555 -0.010723635 0.19304445 -0.08176589
0000d0 52 73 99 bd ba 2d df bc aa 8c 81 3e 77 43 9b bd
       -0.07492699 -0.027243484 0.2530263 -0.07581227
0000e0 a7 ee 55 3e 9d 01 a5 3d 1d 02 45 bd 87 4b 5b bd
       0.2089182 0.08056948 -0.04809772 -0.053538825
0000f0 ba 0d bd bc a1 56 58 3e 28 2c 80 3e 63 4b 72 bd
       -0.023077834 0.21126796 0.2503369 -0.059153926

fc1.weight f4 [64, 100]
000000 17 40 1c bd 25 18 9f 3d 67 0b ba 3b 80 2c 4e bd
       -0.03814706 0.07768277 0.005677629 -0.050335407
000010 67 30 91 ba 7b 78 b0 bd bd 79 4e bd 80 ae 8c 3c
       -0.0011077047 -0.0861673 -0.050409067 0.017173052
000020 9a d3 14 bb 40 a0 bb bc 8d 89 53 bd 0a c8 44 3d
       -0.0022709132 -0.022903562 -0.05164485 0.048042335
000030 da a8 cc bd bb 54 8d 3d ed b6 89 3d c0 0a c2 3d
       -0.099931434 0.06900927 0.067243434 0.09474707
000040 4d 2a db bc 6d 98 8a bc 4a 81 97 bd 1d 11 72 3d
       -0.026753569 -0.016918385 -0.07397707 0.05909835
000050 00 d0 e4 39 ba c1 bf bc 33 73 05 bb a0 50 10 bd
       0.0004364252 -0.023407806 -0.0020362854 -0.03523314
000060 aa f8 2b bd dd 39 4a bd 1a ba 0a 3d d5 d2 86 bd
       -0.04198519 -0.04937159 0.033868887 -0.06583182
000070 5f 0b be bd aa ec 53 3d 03 2d 5f bd ca a7 6f 3d
       -0.092795126 0.051739372 -0.054486286 0.058509625
000080 7a 95 13 bd 53 79 1e 3d 1a dd 6a bc 40 9c ea bc
       -0.036031224 0.038689923 -0.014334941 -0.028638959
000090 47 09 50 3d 77 6f 8a 3d bf 94 c8 3d bd cb ae 3d
       0.050790098 0.067595415 0.09793996 0.08534954
0000a0 1d ec 96 bd 1f ad a0 bd 0f 72 8f bd 87 c5 d0 3c
       -0.07369254 -0.0784552 -0.07004177 0.025484813
0000b0 b3 a7 a5 3c c0 09 78 3c 37 71 09 3d 13 ef 82 3c
       0.020221567 0.015139043 0.033555236 0.01598314
0000c0 33 2c 28 bb 67 c2 c8 3b c0 5d c8 3d a0 9f 30 3d
       -0.002566111 0.00612669 0.097835064 0.04312098
0000d0 87 95 84 3c 70 7f a2 bd b8 ad c5 bd ba 73 20 3d
       0.016184581 -0.07934463 -0.09652275 0.039172865
0000e0 c2 0d a5 3d 92 f8 c8 3d fb 22 9e bd fa 25 8f 3d
       0.08059265 0.09813036 -0.07721516 0.06989665
0000f0 8a c7 9a 3d ed 9a 6b bd 33 99 05 3c 9a fd 3f bd
       0.0755759 -0.057520796 0.008154201 -0.046872713
000100 2a dc b8 bd 15 cc 90 3d 9a fc bf 3b d0 8b 7d bd
       -0.09026368 0.070701756 0.00585897 -0.061900914
000110 73 35 13 3d 7b a1 86 bd da 20 c9 3c ca 5d 1a bd
       0.035939645 -0.06573769 0.024551798 -0.0376871
000120 9a 3b 22 bd b7 cd 88 bd 1d 88 50 3d 48 35 cb 3d
       -0.03960762 -0.06679862 0.050911058 0.09922272
000130 e8 10 87 3d fa bd c1 bd da 4a 06 bc 00 2d 5a bd
       0.065950215 -0.09460063 -0.008196557 -0.05326557
000140 d0 71 00 3d 83 bf a3 3d 7a 05 34 3d 3a bb 3e bd
       0.03135854 0.07995512 0.043950535 -0.046565272
000150 47 44 46 bd 00 36 e7 ba fa 08 a1 bc cd 40 57 ba
       -0.048404958 -0.0017639995 -0.0196576 -0.0008211255
000160 80 10 d6 3c 83 26 8e bd 0b fa c1 bd 2d f2 05 3d
       0.026130915 -0.06940939 -0.0947152 0.03270166
000170 93 fa bb bc 8b 62 a7 bd e2 37 89 3d 67 a7 d3 3c
       -0.022946632 -0.081730925 0.06700112 0.02583666
000180 20 11 96 bd 0a a3 60 bd 40 4b ea bc c0 72 e2 3c
       -0.07327485 -0.054842986 -0.028600335 0.027642608
000190 6d 2d 7d 3d fa dc 25 3d 85 18 9c 3d 82 63 a8 3d
       0.0618109 0.040493943 0.07621864 0.082221046
0001a0 67 13 a5 3c d7 3c 10 3d fd 98 4e 3d fa 9f 33 bd
       0.020150853 0.03521427 0.05043887 -0.043853737
0001b0 db af a0 bd 57 c5 a3 bd 73 80 da 3c bf c7 b6 bd
       -0.07846042 -0.07996624 0.026672577 -0.08924817
0001c0 fd 37 c9 bd a7 6d 0d 3c f3 32 62 3d 37 11 c0 3d
       -0.09825132 0.0086321 0.05522437 0.093782835
0001d0 97 9c 3e 3d 1d 6d b0 3d a7 b8 aa 3d ed 1e 86 bd
       0.046536054 0.08614562 0.08336001 -0.065488674
0001e0 fa 28 a3 3c b0 dd 53 bd 0d a6 fb 3c 7a 8f bd bc
       0.019917 -0.05172509 0.030718828 -0.023139704
0001f0 eb fa cb bd 00 84 c8 ba 73 22 85 bc 08 a6 97 3d
       -0.09959968 -0.0015298128 -0.016251778 0.07404715
000200 33 a1 f5 bc 6a 56 ae bd 00 8e 98 bd 03 e9 5b bd
       -0.029984092 -0.08512576 -0.07448959 -0.053689014
000210 08 a4 9f 3d 6f f3 9d 3d f7 dc 5f 3d 57 b9 a0 3d
       0.07794958 0.07712447 0.054654088 0.07847851
000220 57 a0 a3 3d 20 58 7e 3d ad 74 ac bd 63 17 4a bd
       0.07989567 0.06209576 -0.08420692 -0.04933871
000230 af 8f 8f 3d 80 e1 80 3d 97 88 ae 3d 7d 71 ba bd
       0.07009827 0.06293011 0.08522146 -0.091036774
000240 a3 2b 70 3d bb 5a c6 3d 38 06 c9 3d 2d 18 34 bd
       0.058635365 0.09685274 0.09815639 -0.04396837
000250 00 05 c5 3d 23 4a 11 bd 80 dd 72 3d 0d 43 c5 3c
       0.09620094 -0.035471093 0.05929327 0.024079824
000260 0a 42 92 bd 97 74 04 bd c3 a5 c9 3d 12 44 8d 3d
       -0.07141502 -0.03233775 0.0984607 0.06897749
000270 cd 19 25 3b 5a ac 30 bd 4d d8 6a 3d ea cb 49 bd
       0.002519238 -0.043133117 0.057335187 -0.049266733
000280 6a 05 34 bd aa 4c 3a bd d2 d8 bb bd f0 f7 9a bd
       -0.043950476 -0.04548327 -0.091722146 -0.075668216
000290 90 01 82 bd c0 dc b2 3d 2d 90 b6 3d 6f b0 8a bd
       -0.06347954 0.08733511 0.08914218 -0.06771933
0002a0 ab 5c 88 3d e7 2c ba 3b ca a3 b4 3d a0 62 62 3d
       0.066583 0.0056816223 0.08820303 0.055269837
0002b0 df e0 86 bd 97 22 b0 bd b7 3c c0 bd 47 51 c2 bd
       -0.065858595 -0.086003475 -0.093865804 -0.09488159
0002c0 80 79 ef 3c a7 80 15 bc 13 6d 40 3d da c2 03 3c
       0.02923274 -0.009124911 0.04697902 0.008042062
0002d0 87 1d 77 3d a3 55 26 3d 37 29 4e 3d ad 34 be bd
       0.060330894 0.040609013 0.050332274 -0.09287391
0002e0 13 4e ef 3c 0d de 69 bd 80 06 c1 bb 73 cf 4c 3d
       0.029212033 -0.05709653 -0.0058906674 0.050002526
0002f0 4a fc c8 bd 6b 2f 95 bd 88 80 a9 3d ad 12 5e bd
       -0.09813745 -0.07284435 0.082764685 -0.05421703
000300 9a db bc bb 28 74 83 bd 8d 45 0c 3c 4b 6b 8e bd
       -0.0057634832 -0.064186394 0.008561504 -0.06954058
000310 97 1a 9d 3d 77 58 63 3d b0 4d 1e 3d f8 18 a8 3d
       0.07671087 0.05550429 0.038648307 0.082078874
000320 01 4b e5 3d 12 9a 6a 3d 13 3c 13 3d 05 35 68 3d
       0.111959465 0.05727584 0.035945963 0.05669119
000330 36 d3 cd ba f1 8a 4f 3d 38 f3 09 3e eb 1b b3 bd
       -0.0015703205 0.050669614 0.13471687 -0.08745559
000340 8c f2 65 3b d4 3f e8 3d 1f b2 ad bd 01 d8 c3 3d
       0.0035087196 0.11340299 -0.084812395 0.09562684
000350 e1 c2 b9 bd 05 20 bc 3c 7d f6 2c 3e 53 88 68 bd
       -0.09070373 0.022964487 0.16890903 -0.056770634
000360 b4 44 1e bd 33 c0 08 3e 05 2f cf 3d ec 22 ce 3d
       -0.03863974 0.13354568 0.1011639 0.100652546
000370 03 3a 32 3e 84 cb cd 3d 18 e8 4b 3d 10 98 fb bd
       0.17404942 0.10048583 0.04978189 -0.12284863
000380 eb 61 cd bc 27 61 cf 3d 89 12 b4 3d b0 9d b7 bd
       -0.025071105 0.10125952 0.08792598 -0.089656234
000390 bd 0b 8a bc 6f d7 34 bd 6f 82 4a bc 18 1a d0 3c
       -0.0168513 -0.044150766 -0.012360199 0.025403067
0003a0 4e c1 e7 3d 0b ba 08 3e f4 a0 51 bd 06 a9 47 bc
       0.11316167 0.1335222 -0.051178887 -0.012186294
0003b0 c9 14 e4 3d 66 be d5 3d ed 4d b0 bd a2 0d af bd
       0.11136777 0.10436706 -0.08608613 -0.08547522
0003c0 c7 75 ca bc 90 ae d0 3c 9e 20 11 bd b9 fb c2 3d
       -0.024714364 0.025473863 -0.035431497 0.095206685
0003d0 ef c1 27 3e a3 c4 0a 3d f6 ce 44 3d 6c 7a 5d 3d
       0.16382574 0.033878934 0.048048936 0.05407183
0003e0 57 6e 63 bc 18 47 96 3d 2f b1 98 3d 8a 6d 88 3c
       -0.013881288 0.07337779 0.0745567 0.016653795
0003f0 b5 90 9f bd 33 c4 51 be 5e 55 da 3d bc 9a 86 3e
       -0.077912726 -0.20485 0.10660814 0.26289928

fc2.bias f4 [64]
000000 67 12 f6 3d 82 8d 0b 3e 53 f1 2d 3d 28 a4 90 3d
       0.12015229 0.136282 0.042466473 0.0706256
000010 db 11 ba bd 8f e7 f8 3d 6e af 86 3d 23 17 8e bd
       -0.09085437 0.12153541 0.06576429 -0.06938007
000020 a5 23 3f bc 90 0f a8 bd 3f 40 52 be c0 44 3f 3c
       -0.011666213 -0.08206093 -0.2053232 0.011674106
000030 97 d0 1e 3d 77 62 41 3e 3e 7c 03 bd 03 a2 f6 3d
       0.038773146 0.18885218 -0.03210091 0.1204262
000040 58 6e 0c 3c 4e 4c 33 3e d6 72 36 3d 66 bb b1 3d
       0.00857123 0.17509577 0.04454311 0.086783215
000050 54 a9 fc 3d 4d e3 bc 3d 85 15 ea bd 30 43 06 bd
       0.12336984 0.09223042 -0.11429886 -0.03277892
000060 3c c0 c4 bc 3a f3 42 3c 7f b7 7f bd 33 26 cc bd
       -0.024017446 0.01189881 -0.062430855 -0.099682234
000070 5e 38 22 3d 98 38 87 bd 55 1f a5 3c dc 6f e0 bc
       0.039604537 -0.06602591 0.020156542 -0.027397089
000080 46 7b f7 bd 54 58 29 3e b1 08 15 bd 21 56 de 3d
       -0.120840594 0.16537601 -0.036385242 0.108562715
000090 11 18 bc 3b 6b 11 7c bd 66 eb 2a 3d 3b 6a 2f bd
       0.0057401736 -0.06154005 0.0417284 -0.04282592
0000a0 9b 5e 27 3d 1f 62 41 bc 4d 8e de 3d d3 a4 b5 bd
       0.040861707 -0.011803179 0.108669855 -0.08869328
0000b0 e4 26 58 3d 23 5a 8b 3c 8e 49 f5 3d c7 b1 96 bd
       0.052771464 0.017010754 0.1197692 -0.07358127
0000c0 bd 07 1c bd 18 fc a7 bc 28 17 96 3d 10 bc d9 3d
       -0.038093317 -0.02050595 0.073286355 0.10631573
0000d0 c5 60 9d bd 1b 30 5c bd 35 37 fd bd 47 08 5c 3d
       -0.07684473 -0.053756814 -0.123640455 0.05371883
0000e0 14 7c 53 3e bf 21 3f 3e 5a 4e 90 3d af a6 50 bc
       0.20652801 0.18665217 0.070461944 -0.012735053
0000f0 1d ac b1 3d b0 93 15 be 56 eb 8b 3d 4e 81 5a bd
       0.08675406 -0.1460712 0.06831996 -0.05334597

fc3.bias f4 [200]
000000 a2 17 57 3d d8 d8 05 bd 10 78 1e 3e a3 79 16 3d
       0.052512772 -0.0326775 0.15475488 0.036737096
000010 e0 70 15 3d ea a0 cd ba 29 c8 28 3d 5a ac b8 bd
       0.0364846 -0.0015688215 0.041206513 -0.090172485
000020 78 64 7e bd dd f1 f7 bd 1b 8d 84 3d ef 82 22 be
       -0.062107533 -0.12106679 0.06472226 -0.1587026
000030 59 07 27 be 88 9a 87 ba b6 ad b6 bd 69 22 57 be
       -0.16311397 -0.0010345737 -0.089198515 -0.2100922
000040 51 cc 7a bd e8 06 28 be df 89 1b be ca 83 da bb
       -0.061230008 -0.16408885 -0.15189312 -0.0066685425
000050 4d bf 80 3d 25 32 48 be 39 0f 38 be 6d ac 80 bd
       0.06286488 -0.19550379 -0.17974557 -0.062828876
000060 14 96 07 3a 1e 07 22 be 0c d9 ab bd 61 e2 bc bd
       0.00051722047 -0.15823027 -0.08391008 -0.09222866
000070 d8 eb 15 be c4 2b d5 bc 9e ba 05 bd 26 2e 80 3d
       -0.14640749 -0.026021846 -0.032648675 0.06258802
000080 f1 1e 0f be fb 1c a9 3c 40 05 7e 3d 89 79 a8 bd
       -0.13976647 0.020643702 0.062016726 -0.08226306
000090 c0 1f 7a 3d e6 48 b2 3d 51 e6 cf bc 2e b2 14 bd
       0.061065435 0.087053105 -0.025378378 -0.036302738
0000a0 9f 81 a1 3b 48 cf 01 bd c6 70 8f 3d 77 1b 67 bd
       0.004928782 -0.03169182 0.07003932 -0.056422677
0000b0 a8 36 d7 bc 92 91 67 bd 5c dd 90 3d a6 bb 1c 3d
       -0.02627118 -0.05653531 0.07073471 0.038264893
0000c0 40 20 b0 bd e7 a7 99 bd 59 cb 24 3d fc ad d5 bd
       -0.08599901 -0.07502728 0.04023299 -0.104335755
0000d0 ef 21 8f bd c0 e9 fa bd cc d9 af bd 1e d7 e3 3d
       -0.06988894 -0.122516155 -0.08586463 0.11125015
0000e0 90 99 f8 3d 33 6d 09 3e 9f e0 e7 3c 75 6b f6 3d
       0.12138665 0.13420562 0.02830535 0.120322146
0000f0 d2 bc d7 3d e9 9e 7a bb c0 3f 68 bc d0 86 b0 bd
       0.105340615 -0.003824169 -0.014175355 -0.086194634
000100 5c 90 c7 3d 4e 8a 4a bd 55 e9 cc 3d 93 bf 60 bc
       0.09744331 -0.049448304 0.10005442 -0.01371755
000110 19 08 2f 3d d7 de a5 bd bb 22 2a 3d 03 53 70 3c
       0.042732332 -0.08099144 0.041537028 0.014668229
000120 50 c6 65 bc a0 c2 c1 bd bb d8 bd 3d c8 20 55 bd
       -0.014024332 -0.0946095 0.09269854 -0.052033216
000130 b7 e4 bd 3d e6 97 92 3d 3c 95 56 3b 40 2e 0f 3d
       0.092721395 0.071578786 0.003274276 0.034956217
000140 cd b1 87 3d 86 c7 a1 3d fc 74 22 bd 70 e6 9c bc
       0.0662571 0.07899384 -0.039662346 -0.01915285
000150 c0 9e 92 3c 98 9e 56 3d 70 2f c9 3c 96 b5 14 bc
       0.017897964 0.05239734 0.024558753 -0.009076497
000160 21 8e f2 bb 18 0b 02 3d 1c df b2 3d 80 07 a5 bc
       -0.007402197 0.03174886 0.08733961 -0.020145178
000170 48 a1 f5 bd 14 40 1b 3d 50 23 4e 3d 7d b3 ac 3d
       -0.119936526 0.037902907 0.050326645 0.08432672
000180 f4 79 36 3d 80 74 6c 3c 60 6b ca bb 20 77 47 3c
       0.044549897 0.014432073 -0.006177351 0.012174398
000190 04 18 1e 3d 4c 2a cd 3d c0 a0 f8 bc 48 47 83 3d
       0.03859712 0.10017833 -0.03035009 0.0641008
0001a0 1e ee ba 3d e0 e4 b1 bd 00 3a 51 3a 20 16 1c 3d
       0.091274485 -0.086862326 0.000798136 0.038107038
0001b0 9c 8e a0 3d 48 94 dd 3d 80 40 ed bd e8 92 18 3d
       0.078397006 0.10819298 -0.11584568 0.037249476
0001c0 92 db b8 bd f0 a9 00 3d 84 39 49 bd d0 a6 b3 bc
       -0.09026255 0.031412065 -0.049127117 -0.021930128
0001d0 a0 73 8b bc 2c 4e 2c 3d ba 40 f9 3d d2 3b b3 3d
       -0.017022908 0.042066738 0.12170549 0.08751644
0001e0 74 2c 2f bd f8 40 22 bd 68 81 84 bd 98 1b b3 3c
       -0.042767003 -0.03961274 -0.06469995 0.021863744
0001f0 00 1a a7 3c d4 c7 33 3d 46 e4 b3 bd 54 e1 65 bd
       0.02039814 0.043891743 -0.08783774 -0.056123093
000200 62 5c 97 bd b4 42 94 3d e2 cf 89 3d 08 c3 f4 bc
       -0.073906675 0.07239285 0.067291036 -0.029878154
000210 28 73 a2 bc 5a a8 b5 bd 20 e0 c5 3c 34 39 29 bd
       -0.019830301 -0.08870001 0.024154723 -0.04131432
000220 0a c8 c1 3d 82 0c cd bd bc 35 c5 bd 5e da e3 bd
       0.094619825 -0.10012151 -0.0962939 -0.111256346
000230 50 75 ef bd 56 ec ac bd 34 d2 9a bd b0 8f 16 3c
       -0.116922975 -0.08443515 -0.07559624 0.009189531
000240 a8 b9 dc 3d 6c ce a8 bd 38 1b 70 bd 6e 72 d7 3d
       0.107775986 -0.08242497 -0.058619708 0.105198726
000250 b2 e4 b7 bd 30 58 e5 bd 40 e5 24 bd 1e a4 c8 bd
       -0.08979167 -0.11198461 -0.040257692 -0.09796928
000260 00 66 1c bb 70 5c ad 3d b2 07 ba 3d 3e 0f 96 bd
       -0.0023864508 0.08464897 0.09083499 -0.07327126
000270 32 4e 89 3d e0 c2 19 3d 50 91 43 3c e0 7e 4f bd
       0.06704368 0.037539363 0.011936501 -0.050658107
000280 f8 5b f8 3d 20 eb 7e 3d a4 9b 6d 3d 9a bf aa 3d
       0.12126917 0.06223595 0.05800976 0.08337326
000290 34 25 34 3d e0 12 71 3d 50 b7 3e 3d 50 d9 84 3c
       0.043980792 0.05885589 0.04656154 0.016216904
0002a0 20 ea 68 3d 14 21 e1 3d 16 c0 f9 3d 40 63 93 bd
       0.056863904 0.10992637 0.121948406 -0.07196665
0002b0 72 d2 d6 bd 3c 52 9f 3d 48 d3 1e bd d6 0c f8 bd
       -0.10489358 0.07779357 -0.038775712 -0.12111823
0002c0 2a 53 df 3d 1c 48 e0 3d 54 cc 96 3d 84 0c 99 3d
       0.10904534 0.10951254 0.07363191 0.0747309
0002d0 d2 40 b5 bd 3c 2b 08 bd ec c4 fe bd e0 e3 f0 bd
       -0.08850254 -0.033244357 -0.124399036 -0.11762214
0002e0 60 cf 2d 3d d0 bb 00 3d 60 76 91 bc 26 79 92 bd
       0.042434096 0.031429112 -0.01775664 -0.071520135
0002f0 28 84 c4 bd d6 94 cc bd 1e b7 f9 3d a8 c8 84 3d
       -0.09595519 -0.09989326 0.1219313 0.06483585
000300 bc 44 71 3d 44 57 fb 3d 2c 73 9f 3d 8c 8c bf bd
       0.05890344 0.12272504 0.07785639 -0.09352979
000310 80 7d da 3a 00 3e fa 39 30 1a 37 3d e0 aa b6 3d
       0.0016669482 0.0004772991 0.04470271 0.089193106

fc3.weight f4 [200, 64]
000000 0c 61 84 3e ad 2e 76 3e 4c 59 f3 bd fe d2 0c 3d
       0.2585529 0.24041243 -0.118822664 0.034380905
000010 af 2e a5 bd 5c 21 df 3d 39 85 a0 bc f1 2d 27 bd
       -0.08065545 0.10895035 -0.019594776 -0.040815298
000020 a5 ec 27 3e fd de b9 3c e3 fe 8d 3c ca 38 e7 bc
       0.16398866 0.022689337 0.017333454 -0.028225321
000030 99 4e f3 3c 21 55 d1 bd 60 e2 1d 3e 80 ec 6e 3e
       0.029700564 -0.10221315 0.15418386 0.23332405
000040 3b 73 e0 3d 21 26 1e 3e 3a 46 ca 3c ce 05 9a bd
       0.109594785 0.15444233 0.02469169 -0.075206384
000050 ac a7 54 3c 08 d6 ab bc a2 9e 65 3d 4b bc b9 3d
       0.012979429 -0.020976081 0.056059487 0.09069117
000060 4c 77 84 3d e3 cb 3b 3e 89 06 2b 3e bf 3a d9 3d
       0.064680666 0.18339495 0.16701712 0.10606908
000070 4d 9b 2d 3e 55 80 73 bb 66 10 35 3e c2 00 a5 bc
       0.16953774 -0.003715535 0.17682037 -0.020141963
000080 b9 e1 03 3e 9d df c5 bd 69 80 45 3d d0 5f 5c 3e
       0.12879075 -0.096617915 0.048218165 0.21520925
000090 e5 e2 96 3d c1 c3 c9 3d 6c 55 09 be 74 87 17 3c
       0.073674954 0.0985179 -0.13411492 0.009248603
0000a0 f5 1a f0 3d 53 03 af 3d 76 fb 40 3c ec 4f 16 bd
       0.11723892 0.08545556 0.011778703 -0.036697313
0000b0 18 48 37 3e 77 dd 1e 3c c6 67 b5 bc f7 0b 37 3e
       0.17898595 0.009696356 -0.02214421 0.17875658
0000c0 96 17 d6 bd c6 32 2e 3e b5 b1 ee 3d b6 75 eb 3d
       -0.104537174 0.17011556 0.11654989 0.11497061
0000d0 f2 e0 5b bd 5f ac 44 3c 85 87 9d bc 18 c2 53 3e
       -0.05368132 0.012003987 -0.01922966 0.2067951
0000e0 ea e3 64 3d 17 23 f5 3d 2c bb d6 3d c9 a7 33 3c
       0.05588142 0.119695835 0.10484919 0.010965296
0000f0 f1 e7 6a 3e 16 91 b8 3d cb 07 45 3e 53 2d a4 3c
       0.22940041 0.09012048 0.19241254 0.020041144
000100 4c cd ce 3d 65 6e 84 3d 6c 9d e4 3d fd 41 c9 3d
       0.10097751 0.064663686 0.11162838 0.098270394
000110 ff 62 f1 3d 8a 17 28 3d 1e 48 9f 3d 70 25 1a 3e
       0.1178646 0.041038074 0.07777427 0.15053344
000120 93 3d 8d 3b e7 48 54 3e c0 ab 38 3d 9b cf 03 3e
       0.0043103187 0.20730935 0.04508567 0.12872164
000130 ed 68 47 3e ef 93 ad 3d ee 2b 67 3d b7 9f 1a bd
       0.1947362 0.08475482 0.05643838 -0.037749972
000140 dd 9d cb bd 71 58 1b bc 48 3e cb bd ed 06 00 3e
       -0.099422194 -0.009481535 -0.099239886 0.12502642
000150 4d b7 69 3e cc 47 87 3d 9b f0 29 3e b3 ff cf bc
       0.2282383 0.06605491 0.1659569 -0.025390482
000160 31 66 59 3d 77 5b 76 3c 78 17 2f 3d d8 7c 40 3e
       0.053075973 0.015036455 0.04274699 0.18797624
000170 2d c0 0d bb 04 e9 25 3e fb b8 69 3c 64 16 09 3e
       -0.0021629438 0.1620217 0.014265294 0.13387448
000180 89 c0 1e 3e bc 1f dc 3d 9e 1f 3e 3e 21 0a 8c bc
       0.15503134 0.1074824 0.18566748 -0.017094674
000190 18 6c 98 3d 06 bc 8f 3d de f7 56 3e 0f 6d 81 bd
       0.07442492 0.070182845 0.20992991 -0.063196294
0001a0 60 8a 07 3d b1 07 65 3e 3d 79 f3 3d 0b bd 99 3c
       0.03309095 0.22366215 0.11888359 0.0187669
0001b0 e4 ca 48 bc 72 8e 65 3e 96 4d 8b 3e 61 1d f7 3b
       -0.012255404 0.2241762 0.2720763 0.007541344
0001c0 c8 d5 df 3d e9 5b 4e 3e 79 b2 be bc e2 48 a8 bd
       0.109294474 0.20152248 -0.023278462 -0.08217026
0001d0 0d 9e 05 3e 26 75 58 3e 53 43 a8 3d 1b f5 4d bd
       0.13048573 0.21138439 0.08215966 -0.05028258
0001e0 a7 fc 64 3e bf 08 f8 bc 3d 27 79 3e 8b 6e 83 3e
       0.22362004 -0.030277608 0.24331374 0.25670275
0001f0 07 90 75 bc d6 a9 49 3d 9e 9e ee bd ec 8a 3a 3e
       -0.014987952 0.049234234 -0.116513476 0.18217057
000200 5f cf 04 bd 4a 41 74 3d f4 3f 69 3d 3c 5d c3 3c
       -0.032424327 0.059632577 0.056945756 0.023848169
000210 2d 81 ec bd 4c 1b 44 bd 9f 84 cf bc 0a d0 1f 3c
       -0.11548076 -0.047877595 -0.025331793 0.00975419
000220 f1 92 b3 3c 3a 97 8d bd 17 df 34 3d 0e 81 07 be
       0.021920653 -0.0691361 0.044158068 -0.13232824
000230 7e 00 b0 bd f8 9c cf bd 0f ed 14 3d 2a 14 ae bd
       -0.08593844 -0.10137361 0.03635889 -0.0849994
000240 fa 9e 84 bd 18 b7 1d be 90 07 5b 3d 65 c9 be 3d
       -0.06475635 -0.15401876 0.05347401 0.09315757
000250 31 dc a9 bd 08 5a 83 bd 07 1b e6 bd 3f e1 23 bc
       -0.08293951 -0.064136565 -0.11235624 -0.010002433
000260 dc f8 90 bd b4 5c 92 bd 86 33 88 3d 7a 39 58 bd
       -0.07078716 -0.07146588 0.06650452 -0.05278919
000270 30 b2 07 bc a0 58 a6 bc 30 00 03 be 53 b8 0e be
       -0.008282229 -0.020305932 -0.1279304 -0.13937502
000280 f4 04 10 3c f3 f0 b4 bd 26 16 bc bd 04 1a 3a be
       0.008790243 -0.0883502 -0.09183912 -0.18173987
000290 3b 21 b5 bc cf f7 19 bd fb ac b0 bc 5d 80 0e bd
       -0.022110572 -0.037589844 -0.021566859 -0.034790386
0002a0 28 fe 7b bb 23 1c 98 bc e9 c1 82 3d 59 06 b2 3d
       -0.003845105 -0.018568104 0.06384642 0.08692617
0002b0 8a 71 25 be e8 49 80 3d cc 7f 20 bc a8 65 f4 bd
       -0.16156593 0.062640965 -0.009796094 -0.11933452
0002c0 c6 3a 1b be 9b f3 95 bd 9b 1b ef bc 02 85 d7 bd
       -0.15159139 -0.07321855 -0.029187968 -0.10523416
0002d0 1b e3 6f 3d 6f 9f ea 3d 93 9a 82 3d d1 1c ba bd
       0.058566194 0.11456191 0.06377139 -0.090875275
0002e0 aa 85 05 be cd 8a c5 bd c4 f0 52 3d 0b c5 8b bc
       -0.1303927 -0.09645615 0.051499143 -0.01706173
0002f0 ce 4f c0 bc 4e db a2 3d ca a9 df bd 67 9a aa 3d
       -0.023475554 0.07951985 -0.109210566 0.08330231
000300 e5 f0 24 bd cf 17 a2 3c a4 d7 b9 3d dc 70 d0 3d
       -0.040268797 0.019786743 0.09074333 0.10177776
000310 82 73 37 bd ec 7d 06 be 3a fe d6 3d 79 1b 03 3e
       -0.04478789 -0.13133973 0.104977086 0.12803449
000320 0a e3 df bc 58 3c 37 3e 25 8e ea bd bb 91 c7 3d
       -0.02732994 0.17894113 -0.11452893 0.09744593
000330 ba 51 43 bb 5e 9f ee bc f1 a7 be 3c 39 92 b0 3d
       -0.0029803351 -0.029128727 0.02327344 0.0862164
000340 8a 44 70 bd 9d 6c eb 3d 02 0c 84 bd bb 54 3f bd
       -0.058659114 0.11495326 -0.06447603 -0.046711665
000350 cc f2 3e 3d b2 8d 18 3c 1d c1 98 bd a6 d2 a1 3d
       0.046618268 0.009311127 -0.074587084 0.07901506
000360 ca 49 65 3d fe 44 83 3d a5 50 1c bd f5 90 e4 3d
       0.055978574 0.064096436 -0.038162846 0.11160461
000370 f2 15 f7 bc af 63 1c 3e 34 98 d6 bd 38 e7 01 3e
       -0.030161832 0.15272401 -0.10478249 0.12685859
000380 d1 78 85 3d c1 61 5b 3d 0a 1e 3e 3d f1 bb 79 bc
       0.065171845 0.053560022 0.046415366 -0.015242563
000390 c2 81 a8 3d 07 45 d5 bc da 79 5c bb a4 f4 bc bd
       0.08227874 -0.026033891 -0.0033641965 -0.09226349
0003a0 e5 86 7f 3d 89 c5 11 3e 54 70 a5 3d a7 0a a7 b9
       0.062384505 0.1423551 0.080780655 -0.0003186066
0003b0 4f 66 ca 3c 4d 60 f9 3d 8e 84 74 bd 42 da f2 bd
       0.024706988 0.12176571 -0.059696727 -0.118580356
0003c0 5b f0 cd bc df 17 3b bc 2e d9 97 bd 17 06 06 be
       -0.025139024 -0.0114192655 -0.074144706 -0.1308826
0003d0 27 9a ec 3c 49 e7 2d 3d 76 db 40 bc 94 8e f2 bd
       0.0288821 0.0424569 -0.011771074 -0.11843601
0003e0 7c e7 99 bd 22 87 88 bc 05 a1 f6 bc 2a 89 c2 3d
       -0.07514855 -0.016665999 -0.030106077 0.09498818
0003f0 78 86 f7 bd 81 46 99 bd 37 b6 d5 bd ca e4 8a bd
       -0.12086195 -0.07484151 -0.10435145 -0.06781919
