model/ggnn_drl/v1/src/checkpoint.pth (torch_old, 146715 bytes, 6 tensors)

fc1.weight f4 [64, 300]
0	0xb9e2a000	-0.00043225288
1	0x3cfdb820	0.030971587
2	0xbd42a2cb	-0.047518533
3	0xbd2e096d	-0.042489458
4	0xbcb62a28	-0.022236899
5	0x3c7da888	0.0154820755
6	0xba95ef60	-0.0011439137
7	0x3d3b812e	0.045777492
8	0xbba7e438	-0.0051236413
9	0x3c7a4e20	0.0152774155
10	0xbc8eefb2	-0.01744828
11	0xbc39eff0	-0.011348709
12	0xbd61ec61	-0.05515707
13	0xbd1c9e45	-0.038236875
14	0xbcc2f79c	-0.02379971
15	0x3b0c29a0	0.0021387115
16	0x3cbafad8	0.02282469
17	0x3d0de51e	0.03464233
18	0xbd205242	-0.039140947
19	0xbccdf576	-0.025141459
20	0x3cabca04	0.020970352
21	0x3d445f52	0.047942467
22	0xbc42ac34	-0.011881877
23	0x3d30f678	0.0432038
24	0xbc1877e0	-0.009305924
25	0x3bc82f80	0.006109178
26	0x3d562122	0.05227769
27	0xbd5b60c2	-0.053559072
28	0xbd14dff4	-0.03634639
29	0xbc6f7a0c	-0.014616501
30	0xbcb85ca4	-0.022505112
31	0x3d4c523a	0.049883105
32	0xbd194883	-0.03742267
33	0xbcd9b8b3	-0.02657733
34	0xbd253764	-0.040336028
35	0xbd5d7afe	-0.054072373
36	0xbd0a0b64	-0.03370227
37	0x3d4b47b0	0.049628913
38	0x3cd30bbc	0.025762431
39	0x3ce53bbc	0.027982585
40	0x3b46fdf0	0.003036376
41	0xbcf27b45	-0.029599795
42	0x3c200978	0.0097678825
43	0xbd5ccd78	-0.053906888
44	0xbd2adfd8	-0.04171738
45	0xbcf3d3ec	-0.029764138
46	0x3d1534b4	0.036427215
47	0x3d0aa7a2	0.033851273
48	0xbcd1c1fe	-0.025605198
49	0xbb088690	-0.0020832159
50	0x3d173eba	0.036925055
51	0x3d6b1862	0.0573963
52	0x3cbbb624	0.022914
53	0x3bff93b0	0.007799588
54	0x3d1e8ef2	0.038710542
55	0xbd0b3dd6	-0.03399452
56	0x3c3044c0	0.010758579
57	0xbd3758a8	-0.044762284
58	0xbd23e722	-0.040015347
59	0xbcf4537c	-0.029824965
60	0x3cd6010c	0.026123546
61	0x3cbe353c	0.023218744
62	0xbd0c14c3	-0.034199487
63	0x3c8ee2dc	0.01744216
64	0x3d01d286	0.03169491
65	0xbbeec928	-0.0072871633
66	0x3b1077e0	0.0022044107
67	0x3c5b2d38	0.01337748
68	0x3d12b554	0.03581746
69	0x3d6311bc	0.055436835
70	0xbd363d37	-0.044491973
71	0xbcad53d6	-0.02115814
72	0x3cb9e14c	0.022690438
73	0x3d43f004	0.04783632
74	0x3d4dc9f8	0.05024144
75	0x3d50a97e	0.05094289
76	0x3c3c4100	0.011490107
77	0xbd4da427	-0.050205376
78	0x3bae0980	0.005311191
79	0xbd13f1e0	-0.03611934
80	0xbd5c6419	-0.053806398
81	0x3d521cf2	0.051297136
82	0x3d33cfd8	0.043899387
83	0xbd6be5e8	-0.057592303
84	0x3c310d40	0.010806382
85	0xbc1f59fc	-0.009726044
86	0xbc1ba9d8	-0.009500943
87	0xbcd880ce	-0.026428606
88	0x3cb5e1b8	0.022202358
89	0xbd0c11cc	-0.03419666
90	0x3cad6290	0.021165162
91	0x3cef2eb0	0.029197067
92	0x3d294a8e	0.041330867
93	0x3cb0d8d4	0.021587767
94	0xbd6a0e24	-0.05714239
95	0xbd1967d4	-0.037452534
96	0x3cec28a0	0.028827965
97	0x3c45fc10	0.012084022
98	0xbd3879f2	-0.04503817
99	0xbd082bdc	-0.033244953
100	0x3d5e788c	0.05431418
101	0x3d1f58a4	0.038902894
102	0xbcce398a	-0.025173921
103	0xbc6e138c	-0.0145310275
104	0xbd6145df	-0.054998275
105	0xba8804a0	-0.0010377355
106	0xbd3215dc	-0.043477878
107	0xbd366999	-0.0445343
108	0xbb507b50	-0.0031811781
109	0x3c0e06e0	0.008668631
110	0xbcc1b192	-0.023644242
111	0x3d0c52d2	0.03425867
112	0xbd0fe8b1	-0.03513402
113	0x3d5693ca	0.052387036
114	0x3d220fc2	0.03956581
115	0xbd476bfb	-0.048686963
116	0xbc6b6d64	-0.0143693425
117	0x3b2abb40	0.002605155
118	0x3c0a0328	0.008423604
119	0x3c6059b8	0.013693266
120	0x3cb99ae0	0.022656858
121	0x3b62a540	0.003458336
122	0xbce6c5fc	-0.028170578
123	0x3cdfcd50	0.02731958
124	0xbd62d882	-0.05538226
125	0xbd0c2a34	-0.034219936
126	0xbc6ccb70	-0.0144528
127	0xbce66342	-0.028123502
128	0xbca57584	-0.020197637
129	0xbd41d38a	-0.04732088
130	0xbc4936bc	-0.012281116
131	0x3c4a32e0	0.012341231
132	0xbd1a0f74	-0.037612393
133	0xbb422da0	-0.0029629245
134	0x3d29494c	0.041329667
135	0xbbc27bd8	-0.0059351735
136	0x3ad250e0	0.0016045831
137	0xbba33570	-0.0049807355
138	0x3c3f7050	0.011684492
139	0x3d165d72	0.03671021
140	0x3d6001de	0.05468928
141	0x3d162e02	0.03666497
142	0x3d608514	0.054814413
143	0xbb88d290	-0.0041754916
144	0xbd546ffe	-0.051864617
145	0xbce038db	-0.02737086
146	0x3d2105b4	0.03931208
147	0xb9c43900	-0.00037426502
148	0xbceb15f0	-0.028696984
149	0xbd35382e	-0.04424303
150	0xbd5d5013	-0.054031443
151	0xbd4797e3	-0.048728835
152	0xbc3fde98	-0.011710785
153	0x3d01b042	0.031662233
154	0x3cffb458	0.031213924
155	0xbd641249	-0.0556815
156	0x3d13837e	0.036014073
157	0xbd390cc8	-0.045178205
158	0xbc47fac0	-0.01220578
159	0xbcbfc646	-0.023409974
160	0xbc363360	-0.011120647
161	0xbc39ba00	-0.01133585
162	0xbd54352c	-0.05180852
163	0xbd4c3027	-0.04985061
164	0xbc1404cc	-0.009034347
165	0x3a43ba40	0.0007466413
166	0xbcd6db34	-0.026227571
167	0x3cb22a68	0.021748737
168	0xbd54d924	-0.051964894
169	0xbb7f5a60	-0.003896378
170	0x3d4ff7ac	0.050773308
171	0xbcc0eb34	-0.023549654
172	0x3d558b6a	0.05213491
173	0x3cab4944	0.02090896
174	0xbd556a97	-0.052103605
175	0x3d159f38	0.036528796
176	0xbbda4f70	-0.0066623017
177	0xbcd3228c	-0.02577331
178	0x3d3d1aaa	0.046168007
179	0xbd3f19bb	-0.046655398
180	0x3bcb0190	0.0061952546
181	0xbc460c5c	-0.012087908
182	0x3d28e012	0.041229315
183	0x3c840694	0.016116418
184	0x3ce3432c	0.027741991
185	0x3ca7082c	0.020389639
186	0xbc6378f0	-0.013883814
187	0xbc46ef34	-0.012141991
188	0xbd42e187	-0.04757836
189	0x3d002302	0.031283386
190	0x3d3bc316	0.045840345
191	0x3d21ceac	0.03950374
192	0xbd26cf4b	-0.040725034
193	0x3b28c0f0	0.0025749765
194	0xbd26b467	-0.04069939
195	0xbd022e12	-0.031782217
196	0xbd09ccbc	-0.033642516
197	0x3ca1a230	0.019730657
198	0xbd0cec52	-0.03440506
199	0xbaa519c0	-0.0012596175
200	0x3b1f2c90	0.0024288036
201	0x3d187132	0.037217326
202	0xbd32c312	-0.043643065
203	0xbd225926	-0.0396358
204	0xbd0950ff	-0.03352451
205	0x3d2585aa	0.040410675
206	0xbcaa03b6	-0.020753723
207	0x3d477870	0.048698843
208	0x3cab0720	0.02087742
209	0x3bef8f10	0.0073107556
210	0xb9e15400	-0.0004297793
211	0xbc3afe38	-0.01141315
212	0x3bed5d70	0.0072438046
213	0xbc57ff8c	-0.013183486
214	0xb9d4b080	-0.00040567294
215	0x3bf16370	0.00736659
216	0xbd38fa5b	-0.045160633
217	0xbcf7e560	-0.030260742
218	0x3d3ef542	0.046620615
219	0xbd3feaae	-0.046854667
220	0xbb87d8f0	-0.004145734
221	0x3d69f014	0.057113722
222	0x3caada44	0.02085603
223	0x3ad641e0	0.0016346537
224	0xbd4cf030	-0.05003375
225	0x3cea4bec	0.028600655
226	0xbd28712a	-0.041123547
227	0xbc86420a	-0.016388912
228	0xbc9eb006	-0.019371044
229	0xbc0c1494	-0.008549828
230	0x3a258cc0	0.0006315224
231	0x3d430d7c	0.04762028
232	0x3bec2d80	0.0072075725
233	0x3d53d0da	0.05171285
234	0x3d10a8ce	0.035317235
235	0xbd1581f4	-0.036500886
236	0x3cd4207c	0.025894396
237	0xbd272b2e	-0.040812664
238	0xbcc87460	-0.024469554
239	0x3c8b1c20	0.016981184
240	0x3c9c2b60	0.019063652
241	0x3d316a7a	0.043314435
242	0xbc98414a	-0.01858582
243	0x38c1d400	9.242445e-05
244	0x3cf37e64	0.029723354
245	0xbd64b356	-0.05583509
246	0x3d2af8ee	0.041741304
247	0xbd438d86	-0.04774239
248	0x3a5098c0	0.0007957332
249	0xbc20d2f8	-0.009815924
250	0xbcf9191a	-0.030407477
251	0x3bfa0ca0	0.0076308995
252	0x3d438d4c	0.047742173
253	0xbc8a41cc	-0.016877078
254	0xbd0c65fb	-0.034276944
255	0xbcaeebc4	-0.021352656

fc1.bias f4 [64]
0	0x3d4de84a	0.050270356
1	0x3c9734cc	0.018457793
2	0x3d522e0a	0.051313438
3	0xbd3c20e6	-0.045929812
4	0x3d4dc86c	0.050239965
5	0x3d13f28a	0.036119975
6	0x3d4dea44	0.05027224
7	0xbcd17b8e	-0.02557161
8	0xbd41ea20	-0.04734242
9	0xbc2637b4	-0.010145117
10	0x3d3b211c	0.045685872
11	0x3d6809c2	0.05664993
12	0xbbaf7c18	-0.0053553693
13	0x3bd724f0	0.0065656826
14	0xbbabebf0	-0.005246632
15	0xbb9707c0	-0.004609078
16	0x3c20dde8	0.009818532
17	0x3cdd6678	0.0270264
18	0xbc5ac7f0	-0.013353333
19	0xbd3683a4	-0.044559136
20	0xbadd3c40	-0.0016878918
21	0x3d028670	0.03186649
22	0xbd3e6e56	-0.046491943
23	0x3d5d89fa	0.054086663
24	0x3ca8d114	0.020607509
25	0x3cdf04b0	0.027223915
26	0x3ce4f0fc	0.027946942
27	0x3d22d4e6	0.039753817
28	0x3d4f5fa0	0.050628304
29	0xbcd0920c	-0.025460266
30	0x3c782850	0.01514633
31	0x3d0e1fbe	0.03469824
32	0xbd6a24f7	-0.05716416
33	0x3d08f798	0.03343925
34	0xbd6308a0	-0.055428147
35	0xbd1a4622	-0.03766454
36	0xbd0ab64a	-0.03386525
37	0xbd2131b6	-0.03935405
38	0xbd29ee53	-0.04148705
39	0x3d0b874c	0.034064576
40	0xbd4c2882	-0.04984332
41	0xbce5c368	-0.028047279
42	0xbd5d4a56	-0.05402597
43	0xbcbb11e4	-0.02283568
44	0xb9613000	-0.00021475554
45	0x3c9f165c	0.019419841
46	0xbcf3e292	-0.029771123
47	0x3c275158	0.010212265
48	0x3ce5d878	0.028057322
49	0x3d3f9672	0.046774335
50	0xbc374d54	-0.01118787
51	0xbd208bdc	-0.03919588
52	0x3d1109b6	0.03540965
53	0xbcaa52bc	-0.020791404
54	0xbd62452d	-0.055241752
55	0xbcb4867e	-0.022036787
56	0xbc12d488	-0.008961804
57	0x3c5097d0	0.012731507
58	0x3d33c352	0.043887444
59	0x3d1604ac	0.03662555
60	0xbcca7218	-0.024712607
61	0x3d3f9d16	0.04678067
62	0x3cae21c4	0.021256335
63	0x3c73c5a0	0.01487866

fc2.weight f4 [64, 64]
0	0xbdbaf0ec	-0.091279835
1	0xbcadbb58	-0.021207497
2	0x3d36df50	0.04464656
3	0xbd1688a4	-0.036751404
4	0x3d58ec94	0.052959993
5	0x3d6f0be4	0.05836095
6	0xbdb294c8	-0.08719784
7	0x3dcf6d3c	0.10128257
8	0x3c539230	0.012913272
9	0xbc0850d0	-0.008320048
10	0xbc1adec0	-0.009452522
11	0xbc1dd0f0	-0.009632334
12	0xbc67d9a0	-0.014151007
13	0xbd2b6444	-0.041843668
14	0x3c96a598	0.018389508
15	0xbd08a2c0	-0.033358335
16	0x3dcf45b0	0.10120714
17	0xbd2f3b84	-0.042781368
18	0xbdeaea00	-0.11470413
19	0x3dfdc820	0.123916864
20	0x3d97262c	0.073803276
21	0xbdb63faa	-0.08898862
22	0x3dca27bc	0.0987086
23	0xbddee75c	-0.10883972
24	0xbd7ec014	-0.0621949
25	0xbd84a51c	-0.064768046
26	0x3ca9fbf0	0.020750016
27	0x3d0afc78	0.03393218
28	0xbd50f61c	-0.05101596
29	0xbd2cc2fc	-0.04217814
30	0xbd894fb4	-0.06704655
31	0x3dc42e4c	0.09579143
32	0x3d79514c	0.060868546
33	0x3c3496a0	0.01102224
34	0x3bdea6a0	0.0067947656
35	0x3bfed360	0.0077766627
36	0xbceb7228	-0.028740957
37	0xbd67ebc8	-0.056621343
38	0x3de689a4	0.112567216
39	0xbd48044c	-0.048832223
40	0xbd9db5a4	-0.07700661
41	0xbc4c50c0	-0.012470424
42	0x3d1db5c4	0.038503423
43	0xbddac396	-0.10681836
44	0x3d0bf1f4	0.03416629
45	0xbbc329e0	-0.0059559196
46	0xbd6df8bc	-0.05809854
47	0x3c808088	0.015686288
48	0x3c4c3950	0.012464836
49	0xbdf6da76	-0.12053387
50	0x3d70c044	0.05877711
51	0x3d431e0c	0.047636077
52	0xbd9331ba	-0.07187219
53	0x3d21bedc	0.03948866
54	0xbd86f8e4	-0.06590441
55	0x3dbe62e6	0.09296207
56	0xbd649750	-0.055808365
57	0x3d374c90	0.04475075
58	0x3d255010	0.040359557
59	0xbbeb97c0	-0.007189721
60	0xbd8c8710	-0.06861699
61	0x3d7311ac	0.059343025
62	0x3d04a8ac	0.03238742
63	0xbd6dd80c	-0.058067366
64	0xbc8dfdd0	-0.017332941
65	0x3d53d888	0.051720172
66	0xbdd7f446	-0.10544638
67	0x3c95f0f8	0.01830338
68	0x3cd9ca10	0.026585609
69	0xbdfaea56	-0.12251727
70	0x3c93ab48	0.01802601
71	0xbdc8900c	-0.097931
72	0xbde58f3c	-0.112089604
73	0x3de0c152	0.10974373
74	0x3d839a48	0.06425911
75	0x3db74342	0.08948375
76	0x3de40072	0.111328974
77	0xbd89e27e	-0.06732653
78	0xbd5a9f38	-0.0533745
79	0xb77a0000	-1.4901161e-05
80	0x3d4dabe8	0.05021277
81	0x3c52b3b0	0.012860224
82	0xbc3b89c0	-0.011446416
83	0x3dffce00	0.12490463
84	0xbd79c8f4	-0.06098266
85	0x3d69d988	0.05709222
86	0x3d539500	0.05165577
87	0xbd77b5e8	-0.060476214
88	0x3d91ae88	0.07113367
89	0x3db06132	0.086122885
90	0xbcca5f10	-0.024703532
91	0xbdad2dd2	-0.08456005
92	0x3d9d53da	0.07682009
93	0x3dc1a2a2	0.09454848
94	0x3d405578	0.04695651
95	0x3c7cfa30	0.015440509
96	0x3d79cce8	0.06098643
97	0x3d1d5f28	0.038420826
98	0xbd1deb64	-0.038554564
99	0xbdbc9704	-0.092084914
100	0xbd5fac88	-0.054607898
101	0x3d350f9c	0.04420434
102	0xbd4f3da8	-0.05059591
103	0x3d436450	0.047703087
104	0xbd84e494	-0.0648891
105	0xbdc0c01c	-0.09411642
106	0x3db58d38	0.08864826
107	0xbda1dca6	-0.079034135
108	0x3d1caaec	0.03824894
109	0x3dd8ec7c	0.10591981
110	0x3bef7ca0	0.0073085576
111	0x3d9ff960	0.078112364
112	0xbd07686c	-0.03305857
113	0xbddcc97a	-0.10780616
114	0xbd74da34	-0.059778407
115	0xbd1d8e1c	-0.038465604
116	0xbd94d82c	-0.07267794
117	0xbd99e216	-0.075138256
118	0x3d60ec3c	0.05491279
119	0x3ded78a8	0.11595279
120	0x3da3480e	0.07972728
121	0x3d2c11c4	0.04200913
122	0xbdcb7c4c	-0.09935817
123	0xbcaa0190	-0.020752698
124	0x3d3c57a4	0.045982018
125	0x3de12930	0.10994184
126	0xbd7a7c38	-0.06115362
127	0x3d97b090	0.074067235
128	0x3d9310ec	0.07180962
129	0xbcdf6258	-0.027268574
130	0xbdeaafe0	-0.11459327
131	0x3d6c02e8	0.05761996
132	0x3d82e4fe	0.06391333
133	0xbdcb1670	-0.09916389
134	0x3dc77178	0.09738439
135	0xbbf2a680	-0.0074051023
136	0xbdc01fba	-0.09381051
137	0x3c31ba50	0.010847643
138	0x3d8fac92	0.07015337
139	0x3b94b360	0.0045379847
140	0xbdc62a7e	-0.096760735
141	0xbd89a588	-0.06721026
142	0x3d96d51a	0.07364865
143	0x3d5ae478	0.05344054
144	0x3da3e53a	0.08002706
145	0x3d3c62f0	0.04599279
146	0x3da5ce2c	0.08095965
147	0xbcdffc50	-0.027341992
148	0x3d6e5af8	0.058192223
149	0x3d0f0cfc	0.034924492
150	0x3cb21d60	0.021742523
151	0x3de44480	0.11145878
152	0xbd482460	-0.048862815
153	0x3dc2d4ea	0.095132664
154	0xbd484ba0	-0.048900247
155	0x3dcd564e	0.10026227
156	0xbca8a6b0	-0.020587295
157	0x3dc0b760	0.09409976
158	0xbd27cc58	-0.04096636
159	0x3c27bb00	0.010237455
160	0x3de033dc	0.109473914
161	0xbc3299e0	-0.0109009445
162	0xbc284590	-0.010270491
163	0xbd577bb8	-0.05260822
164	0x3db77bbc	0.08959147
165	0x3d86b21a	0.06576939
166	0xbce1e458	-0.027574703
167	0xbd08860c	-0.033330962
168	0x3de47836	0.11155741
169	0x3d9b5166	0.07583885
170	0x3dcf7530	0.101297736
171	0xbd86e93a	-0.06587453
172	0xbd4157a4	-0.04720272
173	0xbda7cd1c	-0.081934184
174	0xbdbce590	-0.09223473
175	0xbc61e290	-0.013786927
176	0xbba46340	-0.0050167143
177	0xbd80eedc	-0.06295559
178	0xbd1f856c	-0.0389456
179	0x3c2b3110	0.010448709
180	0xbcc91240	-0.024544835
181	0xbdc594a8	-0.096474946
182	0x3dd28bf2	0.10280599
183	0xbd2ae5c8	-0.041723043
184	0x3cafdb90	0.021467
185	0x3d74f9ec	0.059808657
186	0xbdead590	-0.11466515
187	0xbc84a640	-0.016192555
188	0xbdc4c230	-0.09607351
189	0x3ddf347a	0.10898681
190	0xbd6a4ce4	-0.057202235
191	0x3daef6c6	0.08543162
192	0x3c01dc80	0.007926106
193	0xbd59c9e8	-0.05317107
194	0x3d4e1098	0.050308794
195	0xbdcc5392	-0.09976877
196	0xbd3a45dc	-0.04547678
197	0xbc79d550	-0.015248612
198	0x3df6f60c	0.120586485
199	0xbddf40c2	-0.109010234
200	0x3d3decf8	0.04636857
201	0x3dfd2d8c	0.12362203
202	0xbcdde368	-0.027085975
203	0xbd8817a8	-0.06645137
204	0xbda813aa	-0.082068756
205	0xbccff648	-0.02538599
206	0x3dcf9b3c	0.101370305
207	0xbda25222	-0.07925822
208	0x3df3fcfc	0.11913487
209	0xbdc9dbf4	-0.09856406
210	0x3dd2e1e2	0.1029699
211	0x3beed0c0	0.0072880685
212	0xbd10b9c0	-0.035333395
213	0xbdd08534	-0.101816565
214	0xbd7e5908	-0.062096626
215	0xbda1769a	-0.078839496
216	0xbde1366a	-0.10996707
217	0xbd2b9300	-0.041888237
218	0x3dbc29fa	0.09187694
219	0xbde324fa	-0.11091037
220	0x3dc9adb4	0.09847584
221	0x3d071834	0.032982066
222	0x3d8ee09e	0.06976436
223	0xbc68e020	-0.014213592
224	0xbd73af88	-0.05949357
225	0x3d663d3c	0.05621074
226	0x3dbb3be2	0.09142281
227	0x3d10b830	0.035331905
228	0x3d77e9fc	0.06052588
229	0x3dfff2ba	0.12497468
230	0x3cbc5150	0.022987992
231	0xbd7ed53c	-0.062215075
232	0x3d88321c	0.066501826
233	0xbd8b1cfa	-0.06792636
234	0x3dd87874	0.105698496
235	0x3ca54988	0.020176664
236	0x3d6bc228	0.05755821
237	0x3c9d51c8	0.019204035
238	0x3dd98970	0.10621917
239	0x3d890df4	0.066921145
240	0x3daf77a0	0.085677385
241	0xbd736ef4	-0.059431985
242	0x3cb52068	0.022110179
243	0x3dafd90e	0.08586322
244	0x3db3a5e6	0.08771877
245	0xbd2660b8	-0.040619582
246	0x3dc1bede	0.09460233
247	0xbde90232	-0.11377372
248	0x3dc48c20	0.09597039
249	0xbd4cc78c	-0.04999499
250	0xbdb07774	-0.08616534
251	0x3dd693c2	0.10477401
252	0xbadce580	-0.0016853064
253	0xbd483288	-0.048876315
254	0x3d86d856	0.065842316
255	0x3db6f102	0.08932687

fc2.bias f4 [64]
0	0x3da7568e	0.08170806
1	0xbdcd8c7e	-0.100365624
2	0xbcc58958	-0.024113342
3	0xbdbdc378	-0.09265798
4	0xbd8b0138	-0.06787342
5	0x3cf0b660	0.029383838
6	0xbd9d55aa	-0.07682355
7	0x3dc8045e	0.09766458
8	0xbde07598	-0.10959929
9	0xbd0fb588	-0.03508523
10	0xbdee176a	-0.1162556
11	0x3decf12c	0.115694374
12	0xbb0d1f40	-0.002153352
13	0x3d921fee	0.07134996
14	0xbd0f108c	-0.03492789
15	0xbd339850	-0.04384643
16	0x3d8d7906	0.06907849
17	0x3d275ec4	0.04086186
18	0x3c20a960	0.009806007
19	0xbdde277c	-0.10847375
20	0xbb6a76c0	-0.0035776347
21	0xbd7a55b8	-0.061116904
22	0x3dd64ef6	0.10464279
23	0x3d6e62e0	0.058199763
24	0x3ca7dea8	0.020491913
25	0xbdf4828a	-0.11938961
26	0x3df6ae86	0.120450065
27	0x3c660270	0.014038667
28	0xbdcd3cf8	-0.100213945
29	0xbc8765a0	-0.01652795
30	0x3daa2a68	0.083088696
31	0x3c483310	0.0122192055
32	0xbd961940	-0.07329035
33	0xbd6e16b8	-0.058127135
34	0x3dfc32f0	0.12314403
35	0xbcd1da28	-0.02561672
36	0x3c8d7518	0.017267749
37	0xbde6b374	-0.11264697
38	0x3c9d9ae0	0.01923889
39	0x3db04cae	0.086083755
40	0x3d622660	0.05521238
41	0x3de214b6	0.110391065
42	0x3d0f0248	0.034914285
43	0x3dccdd20	0.10003114
44	0xbd8b4d0e	-0.068018064
45	0xbc3165c0	-0.010827482
46	0xbb983a00	-0.004645586
47	0xbdc5722e	-0.09640919
48	0xbd136940	-0.035989046
49	0xbdabb882	-0.083848014
50	0x3c954c08	0.018224731
51	0xbd93e298	-0.07220954
52	0x3c4d50e0	0.012531489
53	0xbd9c8fca	-0.07644613
54	0x3dc1401a	0.094360545
55	0x3d9a08ec	0.07521233
56	0x3dbc7564	0.09202078
57	0x3d88be9a	0.06676979
58	0xbdc49628	-0.095989525
59	0xbdaae9cc	-0.083453745
60	0x3d65fe50	0.056150734
61	0xbdbb820c	-0.09155664
62	0x3dad1f1c	0.08453199
63	0x3d59eb4c	0.053202912

fc3.weight f4 [200, 64]
0	0xbdbda032	-0.092590705
1	0x3d1d9368	0.038470656
2	0x3d729a44	0.05922915
3	0x3da060aa	0.07830937
4	0xbddef8c0	-0.10887289
5	0xbcfdb540	-0.030970216
6	0xbc3af9a0	-0.011412054
7	0xbd3df4e4	-0.046376124
8	0x3c68edb0	0.014216825
9	0xbdc16b70	-0.0944432
10	0x3d6178b8	0.055046767
11	0x3d8438ac	0.06456122
12	0x3c5810d0	0.013187602
13	0xbd6fb64c	-0.05852346
14	0x3cd19578	0.025583968
15	0xbbbadc40	-0.0057025254
16	0xbdb8e8fc	-0.09028813
17	0x3df50bde	0.11965154
18	0xbdf1e3ce	-0.118110284
19	0x3dbaaed0	0.09115374
20	0xbd0e5014	-0.034744337
21	0x3de57bce	0.112052545
22	0x3df301da	0.118655875
23	0x3d01edd0	0.031720936
24	0xbcd9ac28	-0.026571348
25	0x3dae589a	0.08512993
26	0x3dbcf3bc	0.09226176
27	0xbdbf33b2	-0.09336032
28	0xbdb22344	-0.08698133
29	0x3de0d55a	0.109781936
30	0xbcc1a600	-0.023638725
31	0xbdf6ddba	-0.1205401
32	0xbd9c17a4	-0.076216966
33	0xbd07d5f4	-0.033163026
34	0xbdef02a6	-0.11670427
35	0xbd3ba2cc	-0.045809552
36	0x3d26bdf0	0.040708482
37	0xbdaa2dee	-0.08309542
38	0xbcb8bf48	-0.022552148
39	0x3cf5b640	0.02999413
40	0x3defd85a	0.11711188
41	0xbd6cb644	-0.05779101
42	0x3da7d374	0.08194628
43	0xbcb6ef80	-0.022331
44	0x3d833b78	0.06407827
45	0x3de0744a	0.109596804
46	0xbdca4134	-0.09875718
47	0x3ded505a	0.115875915
48	0xbd95c516	-0.07312982
49	0xbde3a60e	-0.11115657
50	0xbd55d178	-0.052201718
51	0xbd04e450	-0.0324443
52	0x3c8c7838	0.017147169
53	0xbd32fa18	-0.04369554
54	0xbdfddc42	-0.123955265
55	0x3cf32a30	0.029683203
56	0xbdbe312a	-0.09286721
57	0xbce1edb8	-0.027579173
58	0x3d7fb46c	0.062427923
59	0x3c957e50	0.018248707
60	0xbd1ffbe4	-0.03905858
61	0xbdbf482a	-0.09339936
62	0x3dfeceb0	0.12441766
63	0xbdb6b4e2	-0.089212194
64	0x3c28afc0	0.010295808
65	0x3da7843e	0.0817952
66	0xbce5f0e8	-0.028068975
67	0xbd597c74	-0.053097203
68	0x3df9ed7c	0.122035
69	0xbddaba34	-0.10680047
70	0xbcf55538	-0.029947862
71	0xbdc3136e	-0.0952519
72	0xbdbf0ea4	-0.09328964
73	0x3de9c54e	0.11414586
74	0xbdb3e60a	-0.08784111
75	0x3dbf3a7e	0.093373284
76	0xbda6b7c4	-0.08140519
77	0x3dea883a	0.114517644
78	0xbdd700da	-0.10498209
79	0xbd057d7c	-0.032590374
80	0x3dcc8c9c	0.099877566
81	0xbde31072	-0.11087121
82	0xbaf8cd80	-0.0018982142
83	0x3d3f7440	0.046741724
84	0x3d6633a4	0.056201592
85	0xbc5a7820	-0.013334304
86	0xbd8aa914	-0.0677053
87	0xbaa70200	-0.0012741685
88	0x3d70a12c	0.058747455
89	0xbd5b3498	-0.053516954
90	0x3c9380e0	0.018005788
91	0xbdae1ef4	-0.085019976
92	0x3dbccb2e	0.09218441
93	0x3cc82688	0.024432436
94	0xbd847248	-0.0646711
95	0x3dfd9f7e	0.12383936
96	0x3d88aedc	0.06673977
97	0xbdc3beb0	-0.09557855
98	0x3d24f48c	0.04027228
99	0xbda20748	-0.07911545
100	0x3de17466	0.11008529
101	0xbdb984de	-0.090585455
102	0x3de7e564	0.1132305
103	0x3d804d64	0.06264761
104	0xbcae0318	-0.02124171
105	0x3df93698	0.12168616
106	0xbd70b00c	-0.05876164
107	0xbbedb560	-0.0072542876
108	0x3d0723b8	0.03299305
109	0x3d94340a	0.07236488
110	0x3dc50654	0.096203476
111	0xbdeedaf8	-0.11662859
112	0x3ce46550	0.02788034
113	0x3db515f2	0.08842076
114	0xbd2aeba0	-0.041728616
115	0x3cfe6838	0.031055555
116	0x38f4c800	0.000116720796
117	0xbc13c590	-0.009019271
118	0xbc317b20	-0.010832578
119	0xbded43a8	-0.1158517
120	0xbda32ede	-0.079679236
121	0x3db71686	0.08939843
122	0x3df5e53a	0.12006612
123	0xbc8cde50	-0.01719585
124	0x3dd0e25a	0.10199423
125	0xbd96a23a	-0.07355161
126	0x3dceaec2	0.10091926
127	0x3d8cc478	0.06873411
128	0x3d1c2bfc	0.038127884
129	0xbbdd9580	-0.0067622066
130	0xbc4936a0	-0.01228109
131	0x3d70dac8	0.058802396
132	0xbc9eb690	-0.019374162
133	0xbda42c4c	-0.080162615
134	0x3da03770	0.07823074
135	0xbda3a2fc	-0.07990071
136	0xbd716054	-0.058929756
137	0x3df988d6	0.121843025
138	0x3d2006b0	0.039068878
139	0x3d67e4b8	0.056614608
140	0x3dbe1824	0.09281948
141	0xbd46aff8	-0.04850766
142	0x3df91fe0	0.12164283
143	0xbdac11fe	-0.08401869
144	0x3c01c3a0	0.007920176
145	0xbdb8a15c	-0.09015152
146	0xbdcb0680	-0.09913349
147	0x3c6d3710	0.01447846
148	0x3a868780	0.0010263771
149	0x3da52e1c	0.08065435
150	0xbdc1b15e	-0.09457658
151	0x3d3323a8	0.043735176
152	0xbc9be670	-0.01903078
153	0x3cd83de0	0.026396692
154	0xbcc03698	-0.023463532
155	0x3ce1c850	0.027561337
156	0x39cba000	0.00038838387
157	0xbddebe28	-0.10876113
158	0xbde2aa2c	-0.11067614
159	0xbcffc1e0	-0.031220376
160	0xbdfe6130	-0.12420881
161	0xbcea07b0	-0.028568119
162	0x3d833fc8	0.0640865
163	0x3dbd3d6c	0.09240231
164	0x3c6da760	0.014505237
165	0x3ccd7db8	0.025084361
166	0x3d8e9368	0.06961709
167	0xbc614260	-0.013748735
168	0x3a06ee00	0.0005147159
169	0xbc109350	-0.008824185
170	0x3d921260	0.07132411
171	0x3de77f6c	0.11303601
172	0xbc7dee00	-0.015498638
173	0x3de53896	0.111924335
174	0x3d7f88b0	0.062386215
175	0x3dc596fe	0.0964794
176	0x3d03be04	0.032163635
177	0xbc43f380	-0.01195991
178	0x3dc53a8c	0.096303076
179	0x3d0ea6f8	0.034827203
180	0x3a809180	0.0009808987
181	0x3df4dc9a	0.11956139
182	0xbd27e590	-0.040990412
183	0x3d34fda8	0.044187218
184	0xbc31b270	-0.0108457655
185	0xbd0f4504	-0.034977928
186	0xbdae5bca	-0.08513601
187	0x3ddb3da4	0.107051164
188	0xbdfc1904	-0.12309459
189	0x3d072058	0.03298983
190	0x3d925ed4	0.07146993
191	0xbdf95eec	-0.12176308
192	0x3dfb3472	0.122658625
193	0xbdb846d2	-0.08997883
194	0x3d7a41ac	0.061097786
195	0x3d624ce4	0.05524911
196	0x3b5f4780	0.0034069717
197	0x3d10d0b8	0.0353553
198	0x3d6ada0c	0.057336852
199	0x3db10a0c	0.086444944
200	0xbbf98fa0	-0.0076159984
201	0x3c722e40	0.014781535
202	0x3c30cd00	0.010791063
203	0x3d43f140	0.047837496
204	0x3d29108c	0.041275546
205	0x3d616de4	0.05503644
206	0xbd0a4c10	-0.033763945
207	0x3d361348	0.04445198
208	0xbccab6b0	-0.024745315
209	0x3df7d8ce	0.12101899
210	0xbdff2602	-0.12458421
211	0xbca5d4b8	-0.020243034
212	0xbca21c88	-0.019788995
213	0x3d5037a8	0.050834328
214	0x3dececb4	0.11568585
215	0xbd9ac254	-0.075565964
216	0x3da82fbe	0.08212231
217	0xbc051820	-0.008123428
218	0xbd73ee70	-0.059553564
219	0x37958000	1.7821789e-05
220	0x3cbdbc70	0.023161143
221	0xbc2549b0	-0.010088369
222	0xbd71cbcc	-0.059032246
223	0x3d8fd97c	0.07023904
224	0x3d53226c	0.0515465
225	0x3d455e6c	0.04818575
226	0xbb930200	-0.0044863224
227	0x3cfa2fb8	0.030540332
228	0xbd336244	-0.043794885
229	0xbda7b256	-0.08188312
230	0xbdad5002	-0.08462526
231	0x3dc93362	0.098242536
232	0xbd3c6f8c	-0.046004817
233	0xbd9d3226	-0.07675581
234	0xbd98189c	-0.07426569
235	0x3dfbf394	0.12302318
236	0xbcf82a78	-0.030293688
237	0xbd98a5ac	-0.074534744
238	0xbd760b3c	-0.060069308
239	0x3de5b6d4	0.11216512
240	0xbb88e3e0	-0.0041775554
241	0x3d8f19c8	0.06987339
242	0x3d85a8c2	0.065263286
243	0x3d62165c	0.055197105
244	0x3db76f6e	0.089568004
245	0xbdd4aa6c	-0.10384068
246	0x3d8fedee	0.07027803
247	0x3dbe32ac	0.09287009
248	0x3d84213a	0.0645165
249	0xbd8102fc	-0.06299397
250	0xbd679c10	-0.056545317
251	0xbdfa283a	-0.12214704
252	0xbde54804	-0.111953765
253	0x3c1c7180	0.009548545
254	0x3d13aa24	0.03605093
255	0x3d80a5c4	0.06281617

fc3.bias f4 [200]
0	0x3dfb54b6	0.12272017
1	0xbdb2a8f2	-0.0872363
2	0x3dff10b4	0.12454358
3	0xbde52e66	-0.111904904
4	0x3d351f64	0.04421939
5	0x3dac00bc	0.083985776
6	0x3d2867b0	0.04111451
7	0x3c98c228	0.018647268
8	0x3cf0c8f8	0.029392704
9	0x3cb23b90	0.021756917
10	0x3ddca4ec	0.10773644
11	0xbd9b064c	-0.075695604
12	0xbd9d6196	-0.07684629
13	0xbd896860	-0.06709361
14	0xbde80868	-0.11329728
15	0xba9fc380	-0.0012189001
16	0xbca92f30	-0.020652384
17	0xbda59c8c	-0.080864996
18	0xbd9cf868	-0.07664567
19	0xbd64f3a0	-0.0558964
20	0x3d774830	0.060371578
21	0x3b734840	0.0037121922
22	0xbd8478d6	-0.0646836
23	0x3d0192bc	0.031634077
24	0xbdad0818	-0.084488094
25	0x3d0675f4	0.032827333
26	0xbd0ddf6c	-0.0346369
27	0x3d407184	0.046983257
28	0x3d387e2c	0.045042202
29	0x3b3edf40	0.0029124767
30	0xbdb63aaa	-0.08897908
31	0x3dd49056	0.103790924
32	0x3d16bbf8	0.036800355
33	0x3c882ae0	0.016622007
34	0x3d9e9e88	0.07745081
35	0x3c6802a0	0.014160782
36	0x3c2ce480	0.0105525255
37	0x3dfa198a	0.122119024
38	0xbdb55de0	-0.08855796
39	0x3d5f4f2c	0.054518864
40	0xbb8fc260	-0.004387185
41	0x3dfdc728	0.12391502
42	0x39e1f000	0.00043094158
43	0xbd9d905e	-0.076935515
44	0x3d2ed4ac	0.04268329
45	0xbdf57ffc	-0.11987302
46	0xbde15cf0	-0.110040545
47	0xbcabaa58	-0.02095525
48	0xbd5adc74	-0.053432897
49	0x3cc1e5b0	0.023669094
50	0xbd14ebec	-0.036357805
51	0xbdfc3992	-0.12315668
52	0x3deaad88	0.1145888
53	0x3b3aa0c0	0.0028477162
54	0x3d8a1c88	0.06743723
55	0xbddcdcae	-0.10784279
56	0xbcd55c30	-0.026044935
57	0x3cc0cb90	0.023534566
58	0x3dae9e20	0.08526254
59	0x3d6b1fc8	0.057403356
60	0x3de3e9c0	0.11128569
61	0x3dc1e6e6	0.094678685
62	0xbda3a908	-0.079912245
63	0x3b75d480	0.0037510693
64	0xbd8751ca	-0.06607397
65	0x3c84dfa8	0.016219929
66	0x3de6e5cc	0.11274299
67	0xbdbc818c	-0.092043966
68	0xbcfa9358	-0.030587837
69	0x3d9a6b52	0.07540001
70	0x3a969e00	0.001149118
71	0xbde749aa	-0.11293347
72	0xbd6617c0	-0.056174994
73	0xbdaca8fa	-0.08430667
74	0xbdcd1f1a	-0.10015698
75	0xbbf55920	-0.007487431
76	0xbd1394cc	-0.036030576
77	0xbdc43896	-0.095811054
78	0xbdfbf5f8	-0.12302774
79	0x3c80fb68	0.01574488
80	0x3ab42c00	0.0013746023
81	0xbda33a92	-0.07970156
82	0x3dd5c7ae	0.104384765
83	0x3d682658	0.056677192
84	0xbd06824c	-0.032839105
85	0x3d4a96d8	0.049460262
86	0x3d9f3164	0.077730924
87	0x3dde2230	0.108463645
88	0x3dbe9406	0.09305577
89	0x3dad7084	0.08468726
90	0x3dbd0040	0.09228563
91	0x3d211d4c	0.03933458
92	0x3dbda37e	0.09259699
93	0x3d92e2ae	0.07172142
94	0x3d207250	0.039171517
95	0xbdab7c1c	-0.08373281
96	0x3df75d1a	0.120783046
97	0xbdce1ab8	-0.1006369
98	0xbd916e5a	-0.07101126
99	0xbcd6cf60	-0.026221931
100	0x3c50ab90	0.012736216
101	0xbcdc16f0	-0.026866406
102	0x3caf1f38	0.021377191
103	0xbd02fff4	-0.031982377
104	0xbc988948	-0.018620148
105	0x3dd76678	0.10517591
106	0xbdb40496	-0.08789937
107	0x3da1f1c4	0.07907441
108	0x3d7d24e4	0.06180276
109	0xbd5ede94	-0.054411486
110	0xbcc00ff8	-0.023445114
111	0xbd3ab15c	-0.0455793
112	0x3a80ec80	0.0009836107
113	0xbdb557da	-0.08854647
114	0xbd09c344	-0.033633485
115	0x3d8bbcd4	0.068231255
116	0xbd9ec084	-0.07751563
117	0x3de625a0	0.11237645
118	0x3d34d4ac	0.044148132
119	0xbcd71638	-0.026255712
120	0xbdff4dea	-0.12466033
121	0x3d510ab4	0.051035598
122	0xbd2621b0	-0.04055947
123	0xbd99d0c6	-0.075105235
124	0xbd641158	-0.055680603
125	0x3da7fc8e	0.08202468
126	0x3df83464	0.12119368
127	0x3aec4580	0.0018026084
128	0x3dc30c98	0.095238864
129	0xbcbbe828	-0.02293785
130	0xbdd2fbdc	-0.103019446
131	0xbd0090e8	-0.031388193
132	0x3df9d0de	0.121980414
133	0xbdd87f70	-0.10571182
134	0x3c70fcc0	0.014708698
135	0xbdcbc7dc	-0.099502295
136	0xbde603da	-0.112312034
137	0x3cef9200	0.029244423
138	0x3d88ffe8	0.06689435
139	0x3dbeef14	0.09322944
140	0xbd84c534	-0.06482926
141	0xbd4bfc94	-0.049801424
142	0xbdd79d48	-0.10528046
143	0x3be921e0	0.007114634
144	0x3d86dad0	0.06584704
145	0x3c22ba30	0.009932086
146	0x3dad27a8	0.084548295
147	0x3dded7d8	0.10881013
148	0xbcc62b68	-0.02419062
149	0xbd53f644	-0.05174853
150	0x3dcc6e2c	0.09981951
151	0x3c93b9f8	0.018033013
152	0xbd4849cc	-0.048898503
153	0xbd61da0c	-0.055139586
154	0x3dadb118	0.084810436
155	0xbd1568f4	-0.036477044
156	0xbdb057fe	-0.08610533
157	0x3dfedbae	0.12444244
158	0x3d3a6f10	0.045516074
159	0xbdb3c100	-0.08777046
160	0xba09b700	-0.00052534044
161	0xbd45d4ac	-0.048298523
162	0x3d84ab24	0.06477955
163	0xbd9797c8	-0.07401997
164	0x3d403670	0.046926916
165	0xbdf37ee0	-0.11889434
166	0xbc07da70	-0.008291826
167	0x3b8890c0	0.004167646
168	0xbd836aaa	-0.06416829
169	0x3d72cb38	0.059275836
170	0xbde838b8	-0.11338943
171	0xbdf56a68	-0.11983186
172	0x3da700da	0.08154459
173	0xbd6649e0	-0.056222796
174	0x3d9ff710	0.07810795
175	0xbdd8c2a6	-0.10584001
176	0x3d67c0c8	0.056580335
177	0x3c804160	0.015656173
178	0x3d424090	0.047424853
179	0xbd9110ca	-0.070832804
180	0x3ddff232	0.10934867
181	0x3de39988	0.11113268
182	0x3d851d70	0.064997554
183	0x3d44fe74	0.048094228
184	0xbdf9bdc4	-0.12194398
185	0x3cf88928	0.030338839
186	0xbdc49f36	-0.096006796
187	0x3c9f8660	0.019473255
188	0xbd695efc	-0.05697535
189	0x3d492898	0.04911098
190	0xbd4bb9c8	-0.04973772
191	0x3c660260	0.014038652
192	0x3df657d4	0.12028471
193	0x3d67be34	0.056577876
194	0x3d42ca94	0.047556475
195	0x3cfcf6e8	0.030879453
196	0xbdcb5644	-0.09928563
197	0xbcbe16c8	-0.023204222
198	0x3c19dfb0	0.00939171
199	0xbc8ddfa8	-0.017318562
